Weights/checkpoint_critic.pth (torch_old, 525828 bytes, 5 tensors)

fcs1.weight f4 [400, 24]
0	0x3d6bbeec	0.057555124
1	0x3ad0bddb	0.0015925722
2	0xbaa40445	-0.001251348
3	0xbc64c299	-0.013962411
4	0x3b63d72f	0.003476571
5	0xbd88339a	-0.06650467
6	0xbaa40445	-0.001251348
7	0xbc64c299	-0.013962411
8	0x3d75d2ff	0.060015675
9	0x39fbbb4c	0.00048013998
10	0xba22061e	-0.0006180721
11	0x3b26754e	0.002539951
12	0x3a5e69ed	0.0008484412
13	0xbd709309	-0.058733974
14	0xba2205ee	-0.0006180693
15	0x3b26754e	0.002539951
16	0x3d8ad082	0.06778051
17	0x3b09e61a	0.0021041692
18	0xbc0c9dec	-0.008582573
19	0x3beaf92f	0.0071708183
20	0xba29428c	-0.00064567546
21	0xbd4b1c48	-0.049587518
22	0xbc0c9dde	-0.00858256
23	0x3beaf92f	0.0071708183
24	0xbbc80b82	-0.0061048875
25	0x3cec3166	0.028832149
26	0x3aa9b481	0.0012947471
27	0xbb321de0	-0.0027178451
28	0x3c5bc671	0.013414011
29	0xbf0e829c	-0.55668044
30	0x3a498ffa	0.00076889957
31	0xbb32241e	-0.0027182172
32	0xbbee6cb8	-0.007276144
33	0x3cd81aeb	0.026380023
34	0x3b8e4910	0.004342206
35	0xbb7ba6f8	-0.0038399082
36	0xbd2b3416	-0.04179772
37	0x3de6574d	0.1124712
38	0xbb99bcb1	-0.004691683
39	0xbb79adc1	-0.003809795
40	0x3a88cb80	0.0010436624
41	0x3b3b924f	0.0028621142
42	0xbca05147	-0.019570006
43	0xbdba1817	-0.09086626
44	0x3d4e98a5	0.050438542
45	0x3f2e402f	0.68066686
46	0x3c924ff7	0.017860396
47	0xbdba19aa	-0.09086926
48	0x3cbc494a	0.022984166
49	0x3bf08b96	0.0073408587
50	0xbb01eb92	-0.0019824249
51	0xbb63ee4d	-0.003477949
52	0xbabd048e	-0.0014420913
53	0xbd345a45	-0.0440314
54	0xbb01eb92	-0.0019824249
55	0xbb63ee4d	-0.003477949
56	0x3cfef767	0.03112383
57	0x3bf06a17	0.0073368656
58	0xbb3c23bf	-0.002870783
59	0x3be855f2	0.0070903236
60	0xbacffda8	-0.0015868442
61	0xbd212b2a	-0.039347805
62	0xbb3c23bf	-0.002870783
63	0x3be855f2	0.0070903236
64	0x3d3ae4de	0.04562842
65	0x3be81092	0.0070820535
66	0xba80fbeb	-0.0009840702
67	0x3b94234d	0.0045208097
68	0xbb0c36ce	-0.002139497
69	0xbd129d12	-0.035794325
70	0xba80fbeb	-0.0009840702
71	0x3b94234d	0.0045208097
72	0xbd95df5f	-0.07317995
73	0x3e0705cd	0.13185807
74	0xbc1f09e0	-0.009706944
75	0x3bbf6822	0.005841271
76	0x3d4ba328	0.049716145
77	0x3c4782e4	0.012177203
78	0x3c0b93cf	0.008519127
79	0x3bbf659e	0.005840971
80	0x3e4ed81c	0.20199627
81	0x3e22de32	0.15905073
82	0xbc3d5295	-0.011555334
83	0x3c434575	0.011918415
84	0xbe17eeb4	-0.14837152
85	0xbdb7b68e	-0.089703664
86	0x3c20a71e	0.009805469
87	0x3c434225	0.011917626
88	0x3f22f97f	0.6366195
89	0x3e5b2e01	0.21404268
90	0x3c02d5b4	0.007985521
91	0xbbe548e5	-0.006997215
92	0xbf2a90c2	-0.6662713
93	0xbf15fe2a	-0.5859095
94	0xbb1fee71	-0.0024403597
95	0xbbe518fe	-0.0069915047
96	0x3d414b76	0.047191106
97	0xbbbc3dc0	-0.005744666
98	0xbb1a2213	-0.0023518845
99	0xbbbc9379	-0.005754885
100	0x3b149254	0.0022670226
101	0xbd4d0099	-0.050049398
102	0xbb1a2213	-0.0023518845
103	0xbbbc9379	-0.005754885
104	0x3d50f227	0.051012184
105	0xbbdddddc	-0.0067708325
106	0xbb319ccf	-0.0027101522
107	0x3bf5cb13	0.007501015
108	0x3bb06473	0.005383068
109	0xbd2b0a51	-0.041757885
110	0xbb319ccf	-0.0027101522
111	0x3bf5cb13	0.007501015
112	0x3d4bd266	0.0497612
113	0xbb832db5	-0.0040032514
114	0xbb96458c	-0.0045859274
115	0x3c4fc2de	0.012680737
116	0x3b8812db	0.0041526384
117	0xbd1016fb	-0.035178166
118	0xbb96458c	-0.0045859274
119	0x3c4fc2de	0.012680737
120	0x3c672e98	0.01411023
121	0xbd3de2cd	-0.046358872
122	0xbb2bdba0	-0.0026223436
123	0x3c6b12cd	0.014347744
124	0x3da0b096	0.07846181
125	0xbd8580fc	-0.065187424
126	0xbc231ae5	-0.009955143
127	0x3c6b1917	0.014349244
128	0xbcb047ba	-0.021518577
129	0xbd3eb843	-0.046562444
130	0xbbd4ac3e	-0.0064902594
131	0x3ca8af74	0.020591475
132	0x3ed44f47	0.41466734
133	0xbeb8a8c7	-0.36066267
134	0x3abe67f1	0.0014526827
135	0x3ca8b4f4	0.020594098
136	0xbb75da32	-0.0037514088
137	0xbca609bc	-0.020268314
138	0x3b87996b	0.004138162
139	0x3a1d30dd	0.0005996356
140	0xbeb50c1c	-0.353608
141	0x3d983c4b	0.07433375
142	0xbb4ce93a	-0.0031266944
143	0x3a1a1281	0.0005877391
144	0x3cb624f4	0.022234417
145	0x39403e61	0.00018333785
146	0xbb236f3d	-0.002493813
147	0xbb85c1a6	-0.0040819226
148	0x3b2899d4	0.0025726454
149	0xbca1049c	-0.019655518
150	0xbb236f3d	-0.002493813
151	0xbb85c1a6	-0.0040819226
152	0x3cc8ac55	0.024496237
153	0x395f3705	0.00021287434
154	0xbae5d207	-0.0017533907
155	0x3b2a5041	0.0025987776
156	0x3b01fe7f	0.001983553
157	0xbc6e6206	-0.014549738
158	0xbae5d207	-0.0017533907
159	0x3b2a5041	0.0025987776
160	0x3d05de3e	0.03268265
161	0x398ead8d	0.00027213656
162	0xba728098	-0.00092507293
163	0x39f24167	0.00046206565
164	0x3b0d156d	0.0021527663
165	0xbc1f2696	-0.009713789
166	0xba728098	-0.00092507293
167	0x39f24167	0.00046206565
168	0x3c76279d	0.015024093
169	0xba2c25ad	-0.00065668934
170	0xbb188a30	-0.0023275726
171	0xba32b22f	-0.00068167126
172	0x3b4b9f54	0.0031070309
173	0xbca9559d	-0.020670706
174	0xbb188a30	-0.0023275726
175	0xba32b22f	-0.00068167126
176	0x3cba7c3d	0.02276432
177	0xb9d53bd4	-0.000406711
178	0xbb2558fb	-0.0025230038
179	0x3a945c45	0.0011319002
180	0x3b34f9bb	0.0027614671
181	0xbc99a581	-0.018755676
182	0xbb2558fb	-0.0025230038
183	0x3a945c45	0.0011319002
184	0x3ce7d16c	0.028298102
185	0xb8fe553c	-0.0001212754
186	0xbabb3a40	-0.0014284328
187	0x3a6bd2c0	0.0008995943
188	0x3ad36af9	0.0016129903
189	0xbc87f112	-0.016594443
190	0xbabb3a40	-0.0014284328
191	0x3a6bd2c0	0.0008995943
192	0x3ca6bbca	0.020353217
193	0x39f34d6b	0.00046406253
194	0xbb3578ce	-0.0027690413
195	0xba4b32d4	-0.00077514094
196	0x3aeacb43	0.001791336
197	0xbccaa95e	-0.024738964
198	0xbb3578ce	-0.0027690413
199	0xba4b32d4	-0.00077514094
200	0x3cdb9054	0.02680222
201	0x3a079de3	0.0005173368
202	0xbb3917f9	-0.0028243049
203	0xbb47a6f1	-0.0030464495
204	0x3af5e77b	0.0018761003
205	0xbc9c6993	-0.01909331
206	0xbb3917f9	-0.0028243049
207	0xbb47a6f1	-0.0030464495
208	0x3d06707d	0.03282212
209	0x3a228b1a	0.00062005373
210	0x39671e9c	0.0002204128
211	0x3bad3ee5	0.0052870386
212	0x3b0c1c87	0.0021379308
213	0xbc5c073d	-0.01342946
214	0x39671e9c	0.0002204128
215	0x3bad3ee5	0.0052870386
216	0x3d60d3e9	0.054889593
217	0x3c40e33d	0.011772928
218	0xbaee77bf	-0.0018193646
219	0x3c9c6bfc	0.01909446
220	0x3c5d9f4a	0.013526747
221	0xbd96c2cd	-0.07361374
222	0xbaee77bf	-0.0018193646
223	0x3c9c6bfc	0.01909446
224	0x3d721e2f	0.059110817
225	0x3c45fed5	0.0120846825
226	0xbb42c64e	-0.002972025
227	0xbb1540f2	-0.0022774306
228	0x3c684cf2	0.014178501
229	0xbd93dd2f	-0.07219922
230	0xbb42c64e	-0.002972025
231	0xbb1540f2	-0.0022774306
232	0x3d94aecc	0.07259902
233	0x3c68a1d9	0.014198744
234	0xbac381a9	-0.0014915961
235	0x3be2e1f0	0.0069239065
236	0x3c51e2c5	0.012810414
237	0xbd8aeff2	-0.06784047
238	0xbac381a9	-0.0014915961
239	0x3be2e1f0	0.0069239065
240	0x3db47650	0.08811629
241	0xbbecac47	-0.0072226855
242	0x39aac72a	0.00032573316
243	0xbb8b4f14	-0.00425137
244	0xbbc88c52	-0.006120243
245	0xbda152a7	-0.07877093
246	0x39aac72a	0.00032573316
247	0xbb8b4f14	-0.00425137
248	0x3dae2173	0.08502474
249	0xbb26c942	-0.002544955
250	0xbc058fee	-0.008151991
251	0x3bddef8a	0.00677294
252	0xbbaae8e7	-0.0052157524
253	0xbd910a19	-0.07082004
254	0xbc058fee	-0.008151991
255	0x3bddef8a	0.00677294

fcs1.bias f4 [400]
0	0xbcea4865	-0.028598974
1	0xbe1b6069	-0.15173496
2	0xbc5e1f25	-0.01355723
3	0x3e2818c7	0.16415702
4	0xbcb804f8	-0.022463307
5	0x3e316da6	0.17326984
6	0xbad10707	-0.0015947529
7	0xb9c1c46c	-0.00036958174
8	0xbab87152	-0.0014071858
9	0xbd1e143e	-0.038593523
10	0xbd309e12	-0.043119498
11	0xbd9685cc	-0.073497385
12	0xbad6b3d6	-0.00163805
13	0xbb37536e	-0.0027973312
14	0xba0ba34e	-0.00053267635
15	0xbd5ca9dd	-0.05387293
16	0xbb5be31b	-0.0033552113
17	0xbab9530c	-0.001413913
18	0xbd342fb5	-0.04399081
19	0xba2f2576	-0.00066813023
20	0xbb103b53	-0.0022008016
21	0xbd92db4e	-0.07170735
22	0xbb0b6b7a	-0.0021273778
23	0xab4acc3f	-7.2048265e-13
24	0xbad3a300	-0.00161466
25	0xba1ee206	-0.0006060902
26	0xb8a34cd2	-7.7867546e-05
27	0xbaf5b61b	-0.0018746288
28	0x38131a28	3.507189e-05
29	0xbc4e5445	-0.012593334
30	0xbdba8a0a	-0.0910836
31	0xbd161c55	-0.036648113
32	0xbd85faf7	-0.06542008
33	0x3c6eb8b7	0.014570407
34	0x3bd99d82	0.006641091
35	0xbc9aa91c	-0.018879466
36	0xbd390c44	-0.045177713
37	0xbbb510e0	-0.0055256933
38	0xbc03d334	-0.00804596
39	0xbd83b2f5	-0.06430618
40	0xbaa03ba6	-0.0012224808
41	0xb9b798b0	-0.0003501824
42	0xbcca9f42	-0.024734143
43	0xbd000de7	-0.03126326
44	0xb9fcef02	-0.0004824326
45	0x3f10f54d	0.566243
46	0xbc445e4f	-0.011985376
47	0x3cffc4fc	0.03122186
48	0xb8e88dbf	-0.00011089024
49	0xbd27dc97	-0.040981855
50	0x3ca72946	0.020405423
51	0xbcb24e95	-0.021765986
52	0xbb115bff	-0.0022180078
53	0xbe881d6c	-0.26584947
54	0xb96477d5	-0.00021788415
55	0x3e8a288c	0.2698406
56	0xb9c67312	-0.00037851237
57	0xbd1c0133	-0.03808708
58	0xbcc3578a	-0.023845453
59	0xbc6483cc	-0.013947438
60	0xb806ea3b	-3.2166234e-05
61	0xb9bcf9f2	-0.00036044378
62	0xbc7abaf0	-0.015303358
63	0xbd9bf4e2	-0.07615067
64	0x3e2b7d6d	0.16747065
65	0xbd19444b	-0.037418645
66	0xbd80d23d	-0.062901
67	0xbd17a034	-0.037018016
68	0xb94289b1	-0.00018552576
69	0xbd72785f	-0.059196826
70	0xbb3397e5	-0.0027403769
71	0xbd93097a	-0.07179542
72	0xbbc3785e	-0.0059652766
73	0x3ecae6ba	0.39629155
74	0x3e4f492e	0.2024276
75	0xbc6a10e1	-0.014286251
76	0x3866fe3c	5.5073047e-05
77	0x3b075056	0.002064725
78	0xbad7f70b	-0.0016476823
79	0xbd46e352	-0.048556633
80	0xbcd711be	-0.026253577
81	0xbcc0024e	-0.023438599
82	0xb810138c	-3.435048e-05
83	0xbbcd9e9a	-0.0062750103
84	0xb50e5b45	-5.3031937e-07
85	0xb9a61f25	-0.00031685192
86	0xba8c7cb1	-0.0010718313
87	0xba013734	-0.00049291854
88	0xbca5c664	-0.020236202
89	0xbcfa3964	-0.030544944
90	0xba23be87	-0.00062463473
91	0xbcf2e219	-0.029648827
92	0xbb6c1779	-0.0036024733
93	0xbc8ec4c1	-0.017427804
94	0xbd176306	-0.03695967
95	0xbc9328ac	-0.01796373
96	0xb781dc1a	-1.5480491e-05
97	0xb8c40d4f	-9.348487e-05
98	0xb88bc780	-6.665196e-05
99	0xba89261d	-0.0010463629
100	0xbced83db	-0.028993538
101	0xbc80d662	-0.015727226
102	0xbc883f84	-0.01663185
103	0xbc018a44	-0.0079065
104	0x3d1aeb25	0.037821908
105	0xbd6f9994	-0.058496073
106	0xbaa0d1b0	-0.0012269523
107	0xbc900342	-0.017579678
108	0xbd23fc09	-0.04003528
109	0xbbc9d966	-0.006159949
110	0xbb60ba06	-0.0034290566
111	0xbca694cd	-0.020334626
112	0xb7d99e3d	-2.5942101e-05
113	0xb7756485	-1.4626542e-05
114	0xbd6dcac9	-0.05805472
115	0xb9341bd1	-0.000171765
116	0xbc03a3a3	-0.0080346195
117	0xbaa81ea9	-0.001282652
118	0xbd7b4761	-0.06134737
119	0xbc47c6b2	-0.012193369
120	0xbd55bc6e	-0.052181654
121	0xb95f8de2	-0.00021319793
122	0xbcf0694a	-0.02934708
123	0xb85eaaf8	-5.308815e-05
124	0xb895eb00	-7.148646e-05
125	0xb9857dbd	-0.0002546142
126	0xb86b1267	-5.6045505e-05
127	0xbd01f4d4	-0.031727627
128	0xba8ae1cb	-0.0010595856
129	0xbce08eb9	-0.027411805
130	0xbaa384da	-0.0012475506
131	0xb59debef	-1.1766077e-06
132	0x3990f464	0.00027647906
133	0xba98e07e	-0.0011663584
134	0xbd89c033	-0.06726112
135	0xbd1c5578	-0.038167447
136	0xbac0aa0b	-0.0014699114
137	0xbc8bcfa1	-0.017066779
138	0xbd28ef33	-0.041243743
139	0xba4e46f6	-0.00078688504
140	0xbc267266	-0.010159111
141	0xb74b7e1e	-1.2129107e-05
142	0xb849c69a	-4.8107097e-05
143	0xbab515b8	-0.0013815677
144	0xba3a35b1	-0.00071033376
145	0xbce093c1	-0.027414205
146	0xba914128	-0.001108204
147	0xbc69177d	-0.014226791
148	0xbd47ae3a	-0.04875014
149	0x38468036	4.7326284e-05
150	0xbb563a32	-0.0032688496
151	0xba99738f	-0.0011707413
152	0xbd5323be	-0.05154776
153	0xbbaf18bf	-0.005343526
154	0xbca47180	-0.020073652
155	0xbd40b0dd	-0.04704367
156	0xb84f9fe5	-4.950156e-05
157	0xbaa5e8b9	-0.0012657858
158	0xbbfe5fb2	-0.0077628726
159	0xb7b7cf37	-2.1911792e-05
160	0xbbbb5441	-0.005716831
161	0xbc7a4dc9	-0.0152773345
162	0xbc1098c5	-0.008825486
163	0xbd9e61d0	-0.077335
164	0xbc797acb	-0.01522703
165	0xba48bcb4	-0.00076575135
166	0xbd4d6717	-0.050147142
167	0xbadd34c5	-0.0016876688
168	0xbcf55bfe	-0.029951092
169	0xba9976b7	-0.0011708353
170	0xbe0b3b32	-0.135968
171	0xba3d0c37	-0.0007211598
172	0xba7312e9	-0.0009272532
173	0xbc8c5eb0	-0.017134994
174	0xbc9ecfa8	-0.019386128
175	0xb997d680	-0.0002896078
176	0xbd0f0619	-0.034917925
177	0xbcb7c498	-0.02243261
178	0xbdc8cf98	-0.0980522
179	0xba2e4315	-0.0006647569
180	0xbd8a8fe4	-0.06765726
181	0xbcde5bb2	-0.027143333
182	0xb9e5c8c7	-0.00043827874
183	0xbb499e41	-0.0030764493
184	0xbb7cb999	-0.0038562773
185	0xbc7ed95d	-0.015554753
186	0xbd9b326c	-0.075779766
187	0xb92836ee	-0.00016042191
188	0xb7d917cb	-2.5879495e-05
189	0xbcb11f19	-0.021621274
190	0xbda25faf	-0.079284064
191	0xbcc1772d	-0.023616398
192	0xba1144e7	-0.0005541578
193	0xbc0d622f	-0.008629366
194	0xb5367c18	-6.7980864e-07
195	0xbc282713	-0.010263222
196	0xba07e6c5	-0.00051842286
197	0xbb2536b8	-0.0025209617
198	0x3d7933d5	0.060840447
199	0xbd22ec88	-0.039776355
200	0xbcaf69c7	-0.021412743
201	0xbbb96aaf	-0.0056584696
202	0xb8c3741f	-9.319954e-05
203	0xbc36cabf	-0.011156737
204	0xbd57c16f	-0.052674707
205	0xbcf683fe	-0.030092236
206	0xbaaa864a	-0.0013009992
207	0xbd76e970	-0.060281217
208	0xbe3f8df0	-0.18706489
209	0xb7669fea	-1.3746301e-05
210	0xbab9949f	-0.0014158672
211	0xbcd7fe7c	-0.026366465
212	0xbd8ca595	-0.0686752
213	0xb8519470	-4.9967726e-05
214	0xbc8253b9	-0.015909063
215	0xbbb9fdfc	-0.0056760293
216	0xbb1e6812	-0.0024170917
217	0x3b1d83f2	0.0024034944
218	0xb7de54ff	-2.6504042e-05
219	0xb78135f0	-1.5403115e-05
220	0xbbaf644e	-0.0053525334
221	0xbd7748c8	-0.060372144
222	0xb78523ea	-1.587156e-05
223	0xb9937419	-0.00028124524
224	0xbc2982d0	-0.01034613
225	0xbba4419a	-0.005012703
226	0xb9697ab1	-0.00022266318
227	0xbcced789	-0.02524926
228	0xbabb2fbb	-0.0014281193
229	0xb952d6fe	-0.00020107251
230	0xba037d82	-0.00050159555
231	0xbc06118e	-0.008182896
232	0xbd00349d	-0.031300176
233	0xba2da045	-0.0006623308
234	0xbb0c649d	-0.0021422275
235	0xbd18f413	-0.037342142
236	0xbac9707a	-0.0015368604
237	0xba168fde	-0.0005743484
238	0xb98fa149	-0.00027395252
239	0xbc20ac75	-0.009806742
240	0xb33939f5	-4.312638e-08
241	0xbc2202d6	-0.009888371
242	0xb9a1a48a	-0.00030830904
243	0xbd1ac031	-0.037780944
244	0xbb813c2c	-0.0039439406
245	0xbc3530bf	-0.011058985
246	0xb9859eb4	-0.0002548598
247	0xb494aeb4	-2.7694261e-07
248	0xbb28e3ff	-0.0025770662
249	0xbc0707a8	-0.0082415715
250	0x3e8b2c98	0.2718246
251	0xb8c12da6	-9.21146e-05
252	0xbd2ec084	-0.042664066
253	0xbce40356	-0.027833622
254	0xbd27dd6d	-0.040982652
255	0xba5df1ce	-0.00084665127

fc2.weight f4 [300, 402]
0	0x01dad1f0	8.03818e-38
1	0xba578214	-0.0008220982
2	0x02e0c060	3.302426e-37
3	0xb2d19557	-2.4398714e-08
4	0x830d0937	-4.1446754e-37
5	0xb6f2c1ec	-7.2347375e-06
6	0x83302ad9	-5.177094e-37
7	0x8257dc8b	-1.5858998e-37
8	0x82a7e9cc	-2.4672637e-37
9	0x82ed6766	-3.4883368e-37
10	0x024027bb	1.4117334e-37
11	0xb9a7ccdd	-0.00032005357
12	0x03196b54	4.5085866e-37
13	0x832ee7d6	-5.140014e-37
14	0x110840d6	1.0748487e-28
15	0xaf8fd4ea	-2.6162833e-10
16	0x034eb136	6.0741387e-37
17	0x824bfd44	-1.4986768e-37
18	0x00d24308	1.93095e-38
19	0x81f76046	-9.0871616e-38
20	0x837067cf	-7.0648827e-37
21	0x02849c2f	1.9485302e-37
22	0x1206a8fa	4.2491224e-28
23	0x015dcfe8	4.0740455e-38
24	0xaab3a771	-3.1912973e-13
25	0x8217ad36	-1.1143437e-37
26	0x02b11fe6	2.6026121e-37
27	0x81e99f98	-8.581969e-38
28	0x0288d148	2.0103526e-37
29	0xba794b62	-0.0009509829
30	0x829a3e41	-2.2663998e-37
31	0x02ea61f5	3.4439434e-37
32	0x8303eabc	-3.87669e-37
33	0xb6fd0458	-7.5404932e-06
34	0xb6651679	-3.413674e-06
35	0x8333bb63	-5.281848e-37
36	0xb42091a4	-1.4954145e-07
37	0x02c6fece	2.9239736e-37
38	0x952d229e	-3.496438e-26
39	0x0258307d	1.5883089e-37
40	0x034d432c	6.0321195e-37
41	0x0dc5f2b3	1.219949e-30
42	0x83015690	-3.800906e-37
43	0xb942f7c3	-0.0001859358
44	0x02b85b5c	2.7088808e-37
45	0xbb2d98b1	-0.0026488716
46	0x0245f26c	1.4542846e-37
47	0xb2b73ec5	-2.1332548e-08
48	0x030012f5	3.763758e-37
49	0x02957b8f	2.1964501e-37
50	0xb5123b50	-5.447555e-07
51	0x02450934	1.4475915e-37
52	0x830dc86e	-4.166626e-37
53	0xbba8e2c1	-0.0051539843
54	0x821e20af	-1.1617386e-37
55	0x38bbc5aa	8.953673e-05
56	0x0290776f	2.122745e-37
57	0x82fd6e8a	-3.7238455e-37
58	0xae035ba5	-2.9867348e-11
59	0x80296a68	-3.803427e-39
60	0x03035485	3.8594464e-37
61	0x007c65c8	1.1424114e-38
62	0x921a86a6	-4.87598e-28
63	0x0332b520	5.251742e-37
64	0xbaa67d71	-0.0012702179
65	0x82f5ee28	-3.613621e-37
66	0x02c6d845	2.9217618e-37
67	0x805e7140	-8.673163e-39
68	0x033ed57a	5.608104e-37
69	0xb8869d0d	-6.418871e-05
70	0x02c9418a	2.9571913e-37
71	0x8244bbbf	-1.4453686e-37
72	0x03169906	4.42567e-37
73	0xb856185a	-5.1044255e-05
74	0xb5178c96	-5.6456463e-07
75	0x832aece2	-5.023044e-37
76	0x020305b7	9.626e-38
77	0x8313f204	-4.3477238e-37
78	0x82d6f72e	-3.1586348e-37
79	0x82f72d2e	-3.631932e-37
80	0x0311cb12	4.2844784e-37
81	0xb79539ce	-1.7789102e-05
82	0x81f484d8	-8.9822066e-38
83	0xb846dea0	-4.7414214e-05
84	0x832b10bc	-5.0271594e-37
85	0x01a3f328	6.0225656e-38
86	0x82293014	-1.2429957e-37
87	0x833e07e4	-5.584504e-37
88	0x8288249c	-2.0004417e-37
89	0x82dc54c1	-3.237474e-37
90	0x83133e77	-4.3271124e-37
91	0x8333ba62	-5.281733e-37
92	0x833ef33a	-5.611519e-37
93	0x80b1f7d8	-1.6343792e-38
94	0x81c9f118	-7.418169e-38
95	0x0357f25f	6.346105e-37
96	0x821fb620	-1.1733742e-37
97	0x826fcd85	-1.7617928e-37
98	0x0103b8b0	2.4193407e-38
99	0x92f1c554	-1.5257883e-27
100	0x82bbcf10	-2.7596028e-37
101	0x821b898e	-1.1427078e-37
102	0x029213a8	2.1464054e-37
103	0x834582ec	-5.8043388e-37
104	0xb4af4649	-3.264743e-07
105	0x02fd55ca	3.722425e-37
106	0x032ca556	5.0736053e-37
107	0x090c7de1	1.6911075e-33
108	0xb8c4bf17	-9.3816016e-05
109	0x02273e12	1.2287036e-37
110	0x1381bc27	3.274971e-27
111	0xa74a4c48	-2.8074484e-15
112	0x832b499c	-5.0336883e-37
113	0x034a44e1	5.9441534e-37
114	0x036abcec	6.898329e-37
115	0x82d26928	-3.0917083e-37
116	0x819acdb0	-5.686581e-38
117	0x830197fe	-3.808417e-37
118	0x830b8bf7	-4.10091e-37
119	0x83063209	-3.94365e-37
120	0x03026a49	3.8325576e-37
121	0x02c56139	2.9002351e-37
122	0x83369e8f	-5.366701e-37
123	0x834a25e0	-5.9405943e-37
124	0x02d1bd54	3.081846e-37
125	0x2cbc2f65	5.3485432e-12
126	0x030b0b50	4.0861415e-37
127	0x01dc2b22	8.087713e-38
128	0x8238ee20	-1.3586524e-37
129	0x82f6fb3a	-3.6290648e-37
130	0x02c05033	2.8257897e-37
131	0x828dbd11	-2.0826607e-37
132	0x032a1940	4.9987495e-37
133	0x01a50620	6.0620216e-38
134	0x032b4e32	5.0342147e-37
135	0x02e574ef	3.3715642e-37
136	0x02133856	1.0816022e-37
137	0x0326cb42	4.9016344e-37
138	0x02ef3008	3.5145462e-37
139	0x81b85308	-6.771007e-38
140	0x834c396d	-6.0016133e-37
141	0x033393f6	5.2773223e-37
142	0x831fda6c	-4.6976636e-37
143	0x02958cfd	2.1974506e-37
144	0x829f9944	-2.345092e-37
145	0x834fe83f	-6.109844e-37
146	0x02dd03ad	3.2475141e-37
147	0x80b967f8	-1.7026864e-38
148	0x804e1d20	-7.173617e-39
149	0x829f44a2	-2.3402344e-37
150	0x03649f3c	6.718597e-37
151	0x02b36a94	2.636286e-37
152	0xb33020d4	-4.100805e-08
153	0x02af503e	2.5759996e-37
154	0x033fe6b2	5.639468e-37
155	0x82f4e97c	-3.5986591e-37
156	0x811fb2e0	-2.9332024e-38
157	0x024b0522	1.4915558e-37
158	0x95264d64	-3.3584483e-26
159	0x831240cf	-4.297994e-37
160	0x99656456	-1.1859285e-23
161	0x0310c9c6	4.254942e-37
162	0x924350a0	-6.163053e-28
163	0x815effd4	-4.0958508e-38
164	0x83497d45	-5.9212393e-37
165	0x02db274c	3.2201713e-37
166	0x82dde0a4	-3.2601969e-37
167	0x014fb9e8	3.8153277e-38
168	0x823c728b	-1.3844931e-37
169	0x0334dca6	5.315054e-37
170	0xac3c85d7	-2.6790703e-12
171	0x032e4be5	5.1221127e-37
172	0x03524f46	6.1804455e-37
173	0x0311af5a	4.2812964e-37
174	0xae8290ef	-5.937461e-11
175	0x81a2b3e2	-5.976752e-38
176	0x02e0df53	3.3042024e-37
177	0xb4b357d8	-3.3405263e-07
178	0xbac4ae4d	-0.0015005559
179	0x03211db9	4.7347768e-37
180	0x82d9faae	-3.2029167e-37
181	0x805a8d10	-8.315798e-39
182	0x02d349c5	3.1046005e-37
183	0x83206a0b	-4.7141505e-37
184	0x8243a1b6	-1.4372746e-37
185	0x83198c05	-4.5123393e-37
186	0x813657b6	-3.349105e-38
187	0x02745325	1.795015e-37
188	0x83049e88	-3.89733e-37
189	0xb2386a63	-1.0734399e-08
190	0x829816e0	-2.2347522e-37
191	0x026a7550	1.7225272e-37
192	0x02df7b14	3.2837548e-37
193	0x82b650fc	-2.678898e-37
194	0x02096569	1.0094274e-37
195	0x03216a0f	4.7435397e-37
196	0x033a76a4	5.479668e-37
197	0x0332a8ac	5.2503124e-37
198	0xb7c7f37d	-2.3836032e-05
199	0x02f4460c	3.5892783e-37
200	0x036988ba	6.86295e-37
201	0x02ab2ade	2.5150796e-37
202	0x02fc5be8	3.7080824e-37
203	0x032b4b14	5.033857e-37
204	0xba2826c8	-0.000641447
205	0x830fd208	-4.2265027e-37
206	0x030f60f6	4.213523e-37
207	0x82939ff6	-2.1691522e-37
208	0xb83c4511	-4.4887016e-05
209	0x831ced72	-4.6116854e-37
210	0x812c5d98	-3.165856e-38
211	0x81eea8f2	-8.7669817e-38
212	0x034a4e9e	5.9452713e-37
213	0x8e78ac02	-3.0651179e-30
214	0x82a9a8ac	-2.492913e-37
215	0x0321db4d	4.7565393e-37
216	0x02f89c88	3.653017e-37
217	0x823d1776	-1.389226e-37
218	0x02a487a7	2.4175495e-37
219	0x834b5e5e	-5.9764667e-37
220	0x02dda209	3.2566035e-37
221	0xb6d2a9a1	-6.278235e-06
222	0x82ef89e4	-3.519704e-37
223	0x825ca730	-1.6211028e-37
224	0x036926f0	6.8517244e-37
225	0x80dc8098	-2.024994e-38
226	0x81064bb4	-2.4666227e-38
227	0x02c478c9	2.8868939e-37
228	0x08dfae70	1.3462334e-33
229	0x03060d32	3.939421e-37
230	0x82ab62aa	-2.5182822e-37
231	0x0229c60c	1.2472996e-37
232	0x82865048	-1.973561e-37
233	0x01bc26b8	6.911585e-38
234	0x81a36576	-6.002233e-38
235	0xba6f1ac7	-0.00091211166
236	0x82a7f39a	-2.4678265e-37
237	0x03549185	6.246825e-37
238	0x832e9a98	-5.131147e-37
239	0xb81a0cef	-3.6728507e-05
240	0x03427f1a	5.715738e-37
241	0x109ea25d	6.257017e-29
242	0x026a56ab	1.7216477e-37
243	0x822def07	-1.277863e-37
244	0x02fb5d8e	3.6934833e-37
245	0x8191a818	-5.350579e-38
246	0x8316fcea	-4.437137e-37
247	0x02d82bfb	3.176359e-37
248	0x02f3d860	3.5829834e-37
249	0x02b1bae5	2.6115085e-37
250	0xb8d01196	-9.9214885e-05
251	0x028d3892	2.0750558e-37
252	0xb8c67c37	-9.4645126e-05
253	0xb72dbd83	-1.0355728e-05
254	0x807c39c0	-1.1408318e-38
255	0x921a25a7	-4.864024e-28

fc2.bias f4 [300]
0	0xbab2db04	-0.0013645594
1	0xb92e4fad	-0.00016623615
2	0x3d874730	0.06605375
3	0xb697ca76	-4.5237202e-06
4	0x9ba4f043	-2.728679e-22
5	0xbcd3edbd	-0.025870198
6	0x3dc83b6f	0.09776961
7	0xb9affb7e	-0.00033565977
8	0xbded4109	-0.1158467
9	0x8d199474	-4.732546e-31
10	0xbc12fad9	-0.00897094
11	0xa3bb47ca	-2.0304984e-17
12	0xb3936163	-6.8629355e-08
13	0x3c71ec41	0.0147658
14	0x3e0a5392	0.13508442
15	0xbcac576f	-0.021037785
16	0x084f41cd	6.2369145e-34
17	0x840a962d	-1.629078e-36
18	0xbd1de909	-0.038552318
19	0x9d8daf12	-3.7503408e-21
20	0xa57d501e	-2.1971397e-16
21	0x3d96a650	0.0735594
22	0xb13ec702	-2.7761762e-09
23	0xba1b6118	-0.0005927249
24	0x3d0ff3e9	0.03514472
25	0xae242a18	-3.732667e-11
26	0x8ceea6db	-3.6770129e-31
27	0xb2b39cc8	-2.0909638e-08
28	0xb6690eb7	-3.472827e-06
29	0xbc81c852	-0.01584259
30	0xbb2f1a57	-0.002671858
31	0xba031089	-0.00049997173
32	0xbdbe7f92	-0.09301676
33	0xbb35fba4	-0.0027768398
34	0xbc9324d2	-0.017961893
35	0xbbee097a	-0.0072643133
36	0x95099041	-2.7780726e-26
37	0xad1bcd2a	-8.8562855e-12
38	0xb15552d4	-3.1042662e-09
39	0xa70696a8	-1.8677907e-15
40	0xb8d3b6d1	-0.00010095316
41	0xbc8a5f91	-0.016891273
42	0xbcc81fa3	-0.024429148
43	0xb6ac6598	-5.1378265e-06
44	0xbceb6cfd	-0.028738493
45	0xbc95ae65	-0.018271634
46	0xaee597d6	-1.0440686e-10
47	0xa7aecc31	-4.8516086e-15
48	0xa8a7669f	-1.858523e-14
49	0x3e6e6eca	0.2328445
50	0x3df05cdd	0.11736462
51	0xbbc9324f	-0.0061400305
52	0x9fbc1720	-7.9659354e-20
53	0xbbfa9598	-0.0076472275
54	0xbec23540	-0.37931252
55	0xb8f8a692	-0.00011856588
56	0xb7ed0e50	-2.8259266e-05
57	0x871dae7b	-1.1862642e-34
58	0xbc1992b7	-0.009373358
59	0x8299c0be	-2.2591958e-37
60	0xae096c06	-3.1246138e-11
61	0xa6822812	-9.031423e-16
62	0x8410fa79	-1.704213e-36
63	0xbadf5079	-0.0017037533
64	0xb591ddb3	-1.0867865e-06
65	0xb807576f	-3.2267937e-05
66	0x3bed081d	0.007233633
67	0x3d563018	0.05229196
68	0xb74fa724	-1.2377077e-05
69	0xaf0cf950	-1.28215e-10
70	0xb3471c32	-4.635894e-08
71	0xa54dddc2	-1.785605e-16
72	0xbae51e83	-0.0017480407
73	0xbdf1fad6	-0.11815421
74	0xa285cbd4	-3.6265534e-18
75	0xb7ddcf30	-2.6441732e-05
76	0xb14b6a85	-2.9600937e-09
77	0x3d48a605	0.048986454
78	0xbca82c64	-0.02052898
79	0xbc1dc5a8	-0.009629644
80	0xbb5c4b80	-0.0033614337
81	0xbbd6fbe8	-0.0065607913
82	0xb5afa8ec	-1.3087679e-06
83	0xb9bb58e0	-0.00035733636
84	0x3d3886b4	0.045050338
85	0xa63c6b90	-6.5371377e-16
86	0xb02c9020	-6.277805e-10
87	0xbb3a77da	-0.0028452785
88	0x9182d953	-2.064432e-28
89	0xa2b79e9a	-4.9770175e-18
90	0x860fa08f	-2.701327e-35
91	0xb185448d	-3.8786028e-09
92	0xb2245510	-9.565397e-09
93	0xb74ca27c	-1.2197179e-05
94	0xb5855cf8	-9.93633e-07
95	0x912364d6	-1.2889505e-28
96	0xa720a17c	-2.2292001e-15
97	0xba541680	-0.0008090511
98	0x202f0cf0	1.4827357e-19
99	0x3dc08c95	0.09401814
100	0x98400f14	-2.482303e-24
101	0x3c86e514	0.016466655
102	0x9f416a84	-4.0957447e-20
103	0xb10fd974	-2.0932847e-09
104	0x93935a84	-3.7197272e-27
105	0xb77fb166	-1.5240488e-05
106	0xbe87be8c	-0.26512563
107	0xb0918190	-1.0586962e-09
108	0xb97d0c9b	-0.00024132656
109	0x3db778be	0.089585766
110	0xbc7b977e	-0.015355943
111	0xaad98c6e	-3.8644386e-13
112	0xb9924323	-0.0002789731
113	0xba99715f	-0.0011706761
114	0xbc11d7e2	-0.008901568
115	0xbc6f833c	-0.014618691
116	0x933205ef	-2.2469684e-27
117	0xbc35cc68	-0.0110960975
118	0xad0d4eb0	-8.032394e-12
119	0xbae4ef7e	-0.0017466394
120	0xb74a1876	-1.20458335e-05
121	0xbd439bdf	-0.047756072
122	0xa673af8e	-8.454548e-16
123	0xbc49fb1c	-0.012327936
124	0xbb3a338c	-0.0028412072
125	0xb18d0838	-4.1045745e-09
126	0x3da450e0	0.08023238
127	0xa14bfa7e	-6.91106e-19
128	0xbd88cdcc	-0.06679878
129	0xba74d61b	-0.00093397655
130	0x82a3cd67	-2.4068593e-37
131	0xbc17b145	-0.009258573
132	0xb1ab8709	-4.9921067e-09
133	0xbc93eea5	-0.01805813
134	0xa46f093c	-5.1832686e-17
135	0xb9a23fb7	-0.0003094652
136	0xbc7b5136	-0.015339186
137	0xbc3f46c7	-0.0116745895
138	0x99825199	-1.3474642e-23
139	0xbd190aec	-0.03736393
140	0xb85c302e	-5.249696e-05
141	0xbc690126	-0.014221465
142	0x82991c44	-2.2497553e-37
143	0x3c2cfda0	0.010558516
144	0xb883147e	-6.250384e-05
145	0x3c76f2f1	0.01507257
146	0xb8bc5c1f	-8.9816975e-05
147	0xbc53a08a	-0.012916693
148	0xb7031a31	-7.814307e-06
149	0xa338216c	-9.981737e-18
150	0xba1b4108	-0.0005922471
151	0x945ae57e	-1.1051447e-26
152	0xad5d1d9c	-1.256897e-11
153	0xbe07245b	-0.13197462
154	0xb9156665	-0.00014247892
155	0xb62bd7b5	-2.5606544e-06
156	0xb09be89c	-1.1343846e-09
157	0xb509d6f4	-5.1349275e-07
158	0x963022a1	-1.4228094e-25
159	0xa30651f0	-7.2815055e-18
160	0xbb3efa73	-0.0029140979
161	0xae8ee072	-6.497282e-11
162	0xb28d5436	-1.6452855e-08
163	0xb140f780	-2.8080365e-09
164	0xb7b9a767	-2.2131671e-05
165	0x3d86e2da	0.06586237
166	0xbea2e16f	-0.31812617
167	0xbb09eade	-0.0021044533
168	0xa5cb99e7	-3.5319175e-16
169	0xbba8df76	-0.0051535917
170	0x94b36da6	-1.811763e-26
171	0xb8dc43c5	-0.000105030405
172	0xbe070d9d	-0.13188787
173	0xa27e808c	-3.4491471e-18
174	0xbd724631	-0.05914897
175	0xbd4fdd3f	-0.050748106
176	0xb39355e7	-6.8608465e-08
177	0xa6710112	-8.361512e-16
178	0x82abda79	-2.525159e-37
179	0x9ac04845	-7.9526097e-23
180	0xafad79d1	-3.1555072e-10
181	0xafceaf36	-3.7595677e-10
182	0xad8e7f32	-1.6200017e-11
183	0x3e2caf49	0.16863741
184	0xadd76158	-2.44859e-11
185	0xb6a4a29d	-4.9065115e-06
186	0x3d082707	0.033240344
187	0xba0d2da5	-0.0005385525
188	0xbb20a2f3	-0.0024511188
189	0xb9939ff6	-0.00028157205
190	0xbb3e812f	-0.0029068699
191	0xbb9ca5b6	-0.0047804965
192	0xa1a6be55	-1.1298978e-18
193	0xb62dc189	-2.5891661e-06
194	0xbc8c2e0b	-0.017111799
195	0xbb8f1bb6	-0.004367317
196	0x8ccd2eea	-3.1613486e-31
197	0xbc66b684	-0.014081601
198	0xbd8ce90c	-0.06880388
199	0xbe86d35a	-0.26333123
200	0xbc44158e	-0.01196803
201	0x82ac9499	-2.535842e-37
202	0x82b4a8a3	-2.6545416e-37
203	0xba6d3fc1	-0.00090503326
204	0xbde98b83	-0.11403563
205	0xb2aa9dd4	-1.9862377e-08
206	0xbb9fa1ce	-0.0048715835
207	0xaff4c8fe	-4.4526155e-10
208	0xbe146e38	-0.1449517
209	0xba425c61	-0.0007414278
210	0x82b3588a	-2.6352505e-37
211	0xbc5e82da	-0.013581002
212	0xbc6d8c74	-0.014498819
213	0xb622b067	-2.424256e-06
214	0xbaaf59e5	-0.0013378231
215	0xbafb6588	-0.0019180039
216	0x3ccff54f	0.025385527
217	0xbaef2225	-0.0018244429
218	0xb2cfccb8	-2.4191067e-08
219	0x8af303fe	-2.340155e-32
220	0x3da7598e	0.08171378
221	0xa438b2b3	-4.0050004e-17
222	0x8ec7cba2	-4.925338e-30
223	0x3dfc9d40	0.123346806
224	0xb41f6292	-1.4843889e-07
225	0xbd95079f	-0.07276844
226	0xa550dbc1	-1.811558e-16
227	0xa4cb695c	-8.82157e-17
228	0xaf5a3cc0	-1.9848567e-10
229	0x3aa17721	0.0012318828
230	0xb9b305b1	-0.0003414578
231	0xbd39b363	-0.045337092
232	0xbb28fd0f	-0.00257856
233	0xb84f66ce	-4.944839e-05
234	0xb7cf198d	-2.4688221e-05
235	0xbb9ab7fc	-0.0047216397
236	0xbafd8674	-0.0019342438
237	0x99968c2b	-1.556625e-23
238	0xbe3e8a0c	-0.18607348
239	0xba397c86	-0.00070757454
240	0xabb75ff1	-1.3029561e-12
241	0xb231a221	-1.033962e-08
242	0xbc8cfc49	-0.017210143
243	0xb60dc70b	-2.1126496e-06
244	0xb6f949f9	-7.42939e-06
245	0xb1acf400	-5.0335984e-09
246	0xbe366aa5	-0.17814119
247	0x9d2d8d49	-2.2969402e-21
248	0x957e307d	-5.1333142e-26
249	0x924d267e	-6.473404e-28
250	0xbc2e73df	-0.010647743
251	0xa02785db	-1.4189739e-19
252	0x92446dd2	-6.198206e-28
253	0xacb35ed2	-5.098013e-12
254	0xabb122f0	-1.2586304e-12
255	0x82c3703a	-2.871709e-37

fc3.weight f4 [1, 300]
0	0xbbc3c66c	-0.0059745815
1	0xbbb109e6	-0.0054027913
2	0xbdc2929e	-0.09500621
3	0x368825b5	4.0575055e-06
4	0x39ae6527	0.0003326323
5	0xbc21775a	-0.009855116
6	0x3d8a26c9	0.06745679
7	0xbb1704da	-0.0023043663
8	0x3d561dc9	0.0522745
9	0xb6c23299	-5.787541e-06
10	0x3cab7ce9	0.020933585
11	0xbb856c53	-0.004071751
12	0x3a35bd34	0.00069327955
13	0xbd28dbdf	-0.04122531
14	0x3de0fc93	0.10985675
15	0x3caa251a	0.020769645
16	0xba062996	-0.0005117891
17	0xb194347e	-4.3133346e-09
18	0x3c6e6062	0.014549347
19	0xb8f8a5b8	-0.00011856429
20	0xbadb1e49	-0.00167174
21	0xbe931a39	-0.28730944
22	0xbc5c2696	-0.013436934
23	0x3c397758	0.011319958
24	0xbdf40281	-0.1191454
25	0xbb28acf8	-0.0025737863
26	0xb5762644	-9.1697825e-07
27	0xbb0407d9	-0.002014628
28	0x3ae782a1	0.0017662832
29	0x3b950f15	0.004548917
30	0x3919f288	0.00014681567
31	0xbc4bcd46	-0.012439078
32	0x3dab1d0b	0.08355149
33	0xba73a2af	-0.0009293956
34	0xbc346c06	-0.011012083
35	0x3ac26339	0.0014830596
36	0x31a02856	4.6611985e-09
37	0x3ac81a3c	0.0015266608
38	0xb927e992	-0.00016013373
39	0xba434f52	-0.00074504793
40	0x3c59ff80	0.013305545
41	0x3a8ef062	0.001090538
42	0x3b81a0f4	0.0039559547
43	0xbc2cc83a	-0.010545785
44	0xbbd23693	-0.006415197
45	0xbb7761f9	-0.0037747605
46	0x38bfcc86	9.145685e-05
47	0x36ad6ba9	5.168335e-06
48	0xb75710a1	-1.281887e-05
49	0xbd841b3e	-0.064505085
50	0x3e453eaf	0.19262193
51	0xbc6a1c96	-0.014289042
52	0x37b34e2b	2.1374863e-05
53	0x3b079e7e	0.0020693834
54	0xbe1f25cf	-0.15541767
55	0xbb577c2f	-0.0032880416
56	0xbc4eddb9	-0.012626105
57	0x370655ae	8.006971e-06
58	0xbc1df5b7	-0.0096411025
59	0xb7b62959	-2.1715345e-05
60	0x3a5bbcdb	0.00083823287
61	0x39b15a9a	0.00033827574
62	0x3536a529	6.8040623e-07
63	0xbbd420ab	-0.006473621
64	0xbc396abf	-0.011316954
65	0xbca31dc5	-0.019911656
66	0xbdb7e613	-0.0897943
67	0x3dd37b4a	0.1032625
68	0x3b789b89	0.0037934503
69	0x3b835fb9	0.0040092138
70	0x3b99673a	0.004681495
71	0xbbaef6fb	-0.005339501
72	0x3bf982ad	0.0076144547
73	0x3ed79023	0.42102155
74	0xb973b835	-0.00023242908
75	0xbb33201d	-0.0027332373
76	0xbb608398	-0.0034258123
77	0xbd35367c	-0.044241413
78	0xbc958418	-0.018251464
79	0xbcdf09ca	-0.027226347
80	0xbe1a162c	-0.1504752
81	0xb9a383db	-0.00031188023
82	0x382de026	4.145517e-05
83	0x3841def2	4.622242e-05
84	0x3d265e66	0.04061737
85	0x3c3a3f7e	0.011367677
86	0xb8de75e7	-0.00010607746
87	0x3a975d1a	0.0011548132
88	0x37f606e7	2.93287e-05
89	0xbb982546	-0.004643115
90	0xb9b7d1e8	-0.00035060872
91	0xb9c7f47e	-0.000381384
92	0x36bdb206	5.6533636e-06
93	0xbcbfaab4	-0.023396827
94	0xbcaf170a	-0.02137329
95	0x31426317	2.8287042e-09
96	0x3a6a82db	0.00089458906
97	0x3c9ba5a2	0.018999878
98	0xb58c4e3d	-1.0453583e-06
99	0x3e4c6078	0.19958675
100	0xb5e42eb3	-1.7000915e-06
101	0x3db59d49	0.088678904
102	0x36dd5b18	6.596918e-06
103	0x3bf441bc	0.007454125
104	0xb523eb84	-6.106495e-07
105	0xbb421815	-0.0029616405
106	0x3ecc666c	0.39921892
107	0x3860fe0a	5.3642354e-05
108	0xbb621365	-0.0034496423
109	0xbd1888ec	-0.037239954
110	0x39659f16	0.00021898406
111	0xbc8653b2	-0.01639733
112	0x3bcf74ce	0.006331063
113	0xbb73cb74	-0.0037200125
114	0xba845696	-0.0010096605
115	0x3b908108	0.004409913
116	0xb8ba6ae5	-8.889082e-05
117	0x3c6ee243	0.014580312
118	0x3c20a042	0.009803833
119	0x3cba1b26	0.022718024
120	0x3c944707	0.018100275
121	0x3b08e790	0.0020889975
122	0x3b7273a7	0.0036995204
123	0x3c483d96	0.0122217145
124	0x3cb05e70	0.021529406
125	0x35cf5d74	1.54499e-06
126	0x3db76de1	0.089565046
127	0xbc0173e1	-0.007901163
128	0xbedc3c89	-0.43014935
129	0xbcc1db79	-0.023664223
130	0xb9e6429b	-0.00043918643
131	0xbb911a98	-0.004428219
132	0xb79e1658	-1.8845472e-05
133	0xbbc23451	-0.0059266468
134	0x3a2db093	0.0006625738
135	0xbbbf8763	-0.005844997
136	0xbcd8d57c	-0.026468985
137	0x3a37592b	0.0006994183
138	0x33ab5f69	7.980163e-08
139	0x3c051d7f	0.008124708
140	0xbc0ca057	-0.00858315
141	0x3d60747b	0.054798584
142	0x39c570ee	0.00037658907
143	0xbd4bf48f	-0.049793776
144	0x3a2faaff	0.00067012006
145	0x3ce8a96a	0.028401095
146	0xbb5a4434	-0.0033304812
147	0x3e1cc1de	0.1530833
148	0xbb7da856	-0.0038705072
149	0x37b45994	2.1499385e-05
150	0x3bb1d8f4	0.005427474
151	0xb9a768fe	-0.00031930947
152	0xbc0557eb	-0.008138637
153	0xbe4315f9	-0.1905135
154	0xb87e5e37	-6.0646064e-05
155	0x394819e3	0.0001908313
156	0xbb526bd5	-0.003210773
157	0xbc085764	-0.008321617
158	0xbb069444	-0.002053515
159	0xbb337919	-0.0027385412
160	0x3c93b706	0.018031608
161	0xbb7cfb1b	-0.003860182
162	0x3a793642	0.0009506681
163	0x39cfafa1	0.0003961297
164	0xbaef309c	-0.001824874
165	0x3d0487b7	0.03235599
166	0xbeb88365	-0.36037746
167	0x3c7c652d	0.015404982
168	0x3c0ce588	0.008599646
169	0x3d11b376	0.035571538
170	0xb8102556	-3.4367047e-05
171	0xbb558d1c	-0.0032585328
172	0x3d2c48c4	0.042061582
173	0xbb86970a	-0.0041073607
174	0x3df7ae71	0.12093819
175	0x3d0e2d0b	0.034710925
176	0xbb168aa6	-0.0022970825
177	0xbb0148f3	-0.001972732
178	0x02b3a146	2.6394253e-37
179	0xbac180a8	-0.0014763074
180	0x3b804b44	0.0039152224
181	0xbc44862f	-0.0119948825
182	0xbb50aaa6	-0.0031839996
183	0x3eb02a66	0.34407347
184	0x39e17a57	0.00043006495
185	0xb8b1d7ea	-8.480235e-05
186	0xbe0872a3	-0.1332498
187	0x3a1e1447	0.0006030243
188	0xb6f0b6e2	-7.1738477e-06
189	0xbace3e54	-0.0015735128
190	0x3bc5a19e	0.006031229
191	0xbb0e5606	-0.0021718754
192	0x3a8ba58a	0.0010654193
193	0x38e9ea12	0.00011153905
194	0xbbcbd67a	-0.006220636
195	0xbcb99700	-0.02265501
196	0xb69fdc31	-4.764203e-06
197	0xbc5febee	-0.01366709
198	0xbdb93ec4	-0.09045175
199	0x3e006a8f	0.12540649
200	0x3b8c19b2	0.004275524
201	0x02bbe0b1	2.7606147e-37
202	0x82c8da71	-2.9512738e-37
203	0x3c46f0d0	0.012142375
204	0xbebe71c5	-0.37196174
205	0xbb1495af	-0.0022672226
206	0xbb76a6a6	-0.0037635951
207	0xbb232a2b	-0.002489696
208	0xbd4e51e8	-0.05037108
209	0xb8782030	-5.9157785e-05
210	0xb3290f83	-3.9362487e-08
211	0xba005d47	-0.0004896712
212	0xbb30949d	-0.002694405
213	0x3bc3128b	0.005953138
214	0xbc5ba7c0	-0.013406694
215	0xbca9785a	-0.02068727
216	0xbe136ccc	-0.14396971
217	0xbc138dfb	-0.009006019
218	0xbc1bb320	-0.009503156
219	0xb61bcc69	-2.3215782e-06
220	0xbd7428ce	-0.059609227
221	0x3a8bd08b	0.0010667009
222	0xb826abac	-3.9737366e-05
223	0x3d12f483	0.035877716
224	0xbb093587	-0.0020936446
225	0x3e3fe59f	0.18739937
226	0x3af61118	0.0018773405
227	0x20e4eb38	3.8780357e-19
228	0x3a72064d	0.0009232506
229	0x3bbd19c5	0.0057708942
230	0x3b82acba	0.0039878758
231	0x3e080587	0.13283359
232	0x3d0ec798	0.034858316
233	0x3bcf7cbd	0.0063320086
234	0xbab2b3e5	-0.0013633935
235	0xba674229	-0.00088218093
236	0xbbe89330	-0.0070976242
237	0x368ed5fa	4.25684e-06
238	0x3e0cd7f2	0.13754252
239	0x3ae7683e	0.0017654968
240	0x3a755e65	0.0009360074
241	0x321115d1	8.445071e-09
242	0x3c6604cf	0.014039232
243	0x3c31d978	0.010855071
244	0xbc18a970	-0.009317741
245	0x3a6eb171	0.00091054203
246	0xbe94dbe6	-0.2907402
247	0xb9c166b3	-0.00036888345
248	0xbb146b5e	-0.0022647004
249	0x3b8a3fba	0.0042190226
250	0x3c32ac32	0.010905312
251	0x37980aaf	1.8124787e-05
252	0xbadfa0e5	-0.00170615
253	0x3bfaa1cc	0.007648682
254	0x3a8c8dc7	0.0010723405
255	0x02bc58a0	2.7674985e-37
