Weights/checkpoint_actor.pth (torch_old, 524629 bytes, 6 tensors)

fc1.weight f4 [400, 24]
0	0xbd2be4ae	-0.041966133
1	0xbe1cb49d	-0.15303273
2	0xbc9bbcb7	-0.019010885
3	0xbdefa015	-0.11700455
4	0x3dd83ac7	0.10558086
5	0xbd8d01f3	-0.068851374
6	0x3d3b7892	0.04576928
7	0xbdff5f3f	-0.124693386
8	0x3ba99c06	0.00517607
9	0xbdff633a	-0.12470098
10	0x3c0ff594	0.008786578
11	0xbdedb323	-0.11606433
12	0x3dfc7e7d	0.12328813
13	0xbe4cc39a	-0.19996491
14	0xbd19971e	-0.037497632
15	0xbde376d9	-0.11106653
16	0xbd4c3126	-0.04985156
17	0xbdc757bb	-0.0973353
18	0x3c8b2871	0.016987057
19	0xbe046c68	-0.12931979
20	0x3e01002a	0.12597719
21	0xbeb38999	-0.35065916
22	0x3be7813c	0.0070649665
23	0xbe1c7f34	-0.15282899
24	0xbcba06a0	-0.022708237
25	0xbe6e1138	-0.23248756
26	0xbc4ddfd6	-0.012565574
27	0x3d3b4f21	0.04572976
28	0x3c954864	0.018222995
29	0xbca8651f	-0.02055603
30	0x3ba1dc2e	0.0049395775
31	0xba809101	-0.000980884
32	0xbc4a527b	-0.012348766
33	0xbde395a2	-0.111125246
34	0x3d16c0c9	0.036804948
35	0x3dd93f96	0.10607831
36	0xbda4046e	-0.080086574
37	0x3db700f7	0.08935731
38	0xbd14bae3	-0.03631104
39	0x3db11980	0.08647442
40	0x3c99b906	0.018764984
41	0xbd8dc6aa	-0.06922658
42	0xbd790336	-0.060794078
43	0x3d2ca80b	0.042152446
44	0x3bdfafa0	0.006826356
45	0x3df6facf	0.12059557
46	0x3c7e4230	0.01551871
47	0x3d342513	0.04398067
48	0x3d0ce8b9	0.03440163
49	0xbdf7ba83	-0.12096121
50	0x3cb7a4a6	0.022417378
51	0xbd0f8da3	-0.035047185
52	0x3ca7f9c8	0.020504847
53	0xbb8500eb	-0.0040589473
54	0xbc0313d0	-0.008000329
55	0x3bd16d92	0.0063912356
56	0x3d38e096	0.045136057
57	0xbe0d1be4	-0.1378017
58	0x3cb20c68	0.021734431
59	0xbd5ee745	-0.054419775
60	0xbdff658f	-0.12470543
61	0x3df58090	0.11987412
62	0xbc3a9b44	-0.011389557
63	0xbcf52140	-0.029923081
64	0x3bbea5f4	0.005818123
65	0xbd9add29	-0.07561714
66	0x3c8e22a6	0.017350506
67	0x3d92926c	0.07156834
68	0xbe750f60	-0.23931646
69	0x3e2392ed	0.15974016
70	0xbcf99235	-0.030465225
71	0xbba2facf	-0.0049737464
72	0xbd451df7	-0.04812428
73	0x3a6f3d04	0.00091262185
74	0x3ce221d6	0.027604025
75	0x3c52c44e	0.0128641855
76	0x3cc41ec2	0.023940448
77	0x3d818d67	0.063257985
78	0x3c632fae	0.013866348
79	0xbc5d5a80	-0.013510346
80	0x3c1ad2a1	0.009449632
81	0xba55d2bc	-0.0008156707
82	0x3d20eb44	0.039286867
83	0x3cbcd974	0.023052908
84	0x3d1263bd	0.03573965
85	0x3c888a60	0.016667545
86	0xbc5bba17	-0.0134110665
87	0x3bcb515b	0.0062047667
88	0xbd78069a	-0.06055317
89	0x3d4e3d99	0.050351713
90	0xbb6c79ce	-0.0036083343
91	0xbd827a54	-0.063709885
92	0x3e07db6c	0.13267297
93	0xbda57bf3	-0.08080282
94	0xbd5401c7	-0.051759508
95	0x3c873d06	0.01650859
96	0x3d33147c	0.043720707
97	0x3da53d57	0.0806834
98	0xbc65f49a	-0.014035368
99	0x3e5e266f	0.21694349
100	0xbd75e796	-0.06003531
101	0xbd2b04b1	-0.04175252
102	0xbc45dfc4	-0.012077276
103	0x3e3c8da7	0.18413411
104	0x3d578421	0.052616242
105	0x3d9e787d	0.07737825
106	0xbc623f87	-0.013809091
107	0x3dc083bc	0.09400126
108	0x3c7dc5d9	0.015489065
109	0xbe236463	-0.15956263
110	0x3cb807de	0.022464689
111	0x3df9b334	0.121923834
112	0x3d76c77d	0.06024884
113	0x3e052c79	0.13005246
114	0xbca02bf3	-0.019552207
115	0x3b3e44fd	0.002903282
116	0x3c828a3b	0.015935054
117	0xbe29ebd8	-0.16593874
118	0x3cb6a929	0.022297459
119	0xbcfa9a07	-0.030591024
120	0xbd4ec02a	-0.05047623
121	0x3d9c6faa	0.07638486
122	0xbc5d236b	-0.013497214
123	0x3d15891b	0.036507707
124	0x3d816975	0.063189425
125	0x3da779f9	0.08177561
126	0x3c9dd673	0.019267296
127	0x3c3c53da	0.011494601
128	0xbd48ff92	-0.049071856
129	0x3db63255	0.08896319
130	0xbcf68ca6	-0.030096363
131	0x3d28f983	0.041253578
132	0x3e38dc59	0.18052806
133	0x3dbe6381	0.092963226
134	0x3ce68eba	0.02814423
135	0x3cf3d7fd	0.029766077
136	0xbc9fd84e	-0.019512322
137	0x3dfa5389	0.12222964
138	0x388c109c	6.678814e-05
139	0x3cb2c79c	0.021823697
140	0x3ea077c8	0.31341386
141	0x3d4b7cd5	0.049679596
142	0xbca090b5	-0.019600252
143	0xbc34be00	-0.011031628
144	0x3d93efd7	0.0722348
145	0x3eb50987	0.3535883
146	0xbcbf7c0f	-0.023374585
147	0x3e53baae	0.20676681
148	0x3c601448	0.01367671
149	0x3c987e47	0.018614901
150	0x3c9a8569	0.018862443
151	0x3e16f686	0.14742479
152	0xbce37f09	-0.027770536
153	0x3ed41eb8	0.41429687
154	0x3bac7800	0.0052633286
155	0x3ddd173d	0.10795448
156	0x3da8594a	0.082201555
157	0x3c0bef4e	0.008540941
158	0xbb09be39	-0.0021017923
159	0x3dd156ad	0.1022161
160	0x3949b4ff	0.0001923628
161	0x3eb72ed6	0.3577792
162	0xbbb5db60	-0.005549833
163	0xbe25a6d4	-0.16176921
164	0x3dda0f5e	0.10647462
165	0x3be65b35	0.0070299157
166	0x3b627881	0.003455669
167	0xbe5b037a	-0.21388045
168	0x3dd7e55d	0.105417944
169	0xbe01d31f	-0.12678193
170	0x3c9ac432	0.018892381
171	0xbe0a7b07	-0.13523494
172	0xbcb89ab6	-0.02253471
173	0x3d0c441d	0.034244645
174	0x3c056124	0.008140836
175	0xbd995b6b	-0.0748814
176	0x3daf542a	0.08560975
177	0xbe11319d	-0.14179082
178	0xbadb2558	-0.0016719503
179	0xbdc87dd5	-0.097896256
180	0x3d3d1ded	0.046171118
181	0x3c54bfee	0.012985213
182	0xbc3cda73	-0.011526692
183	0xbd512b23	-0.05106653
184	0x3c8cbff5	0.017181376
185	0xbde852bd	-0.11343906
186	0x3ca9be5a	0.02072065
187	0xbd1649ee	-0.0366916
188	0x3ea4ae25	0.32164112
189	0xbdfb35e1	-0.12266136
190	0xbcf67787	-0.030086292
191	0xbd8e7a7c	-0.06956956
192	0x3dfe7485	0.12424568
193	0xbd7808f2	-0.060555406
194	0xbcc120a8	-0.023575142
195	0x3c8b2385	0.01698471
196	0x3cc4024c	0.023926876
197	0x3d177df3	0.03698535
198	0x3d13909f	0.036026593
199	0x3d2772f5	0.040881116
200	0x3dc3cbce	0.09560357
201	0xbdbf4df3	-0.093410395
202	0xbc34fae0	-0.011046141
203	0x3cf5bb75	0.029996613
204	0xbda22e0b	-0.07918938
205	0x3e283330	0.16425776
206	0xbb883bab	-0.0041575036
207	0x3c457822	0.012052568
208	0x3d626b8e	0.055278353
209	0xbc6772b3	-0.0141264675
210	0xbce4e963	-0.027943319
211	0xbcfdc566	-0.030977916
212	0xbd250def	-0.04029649
213	0x3ddd7e9b	0.10815164
214	0x3b5e52a1	0.0033923762
215	0xbd7f3730	-0.06230849
216	0xbd965cd4	-0.07341924
217	0xbc4b0def	-0.012393459
218	0x3c77acb7	0.015116862
219	0xbd21a02c	-0.039459392
220	0xbbf96eed	-0.0076121003
221	0x3d86a276	0.06573956
222	0xbc8383b4	-0.016054012
223	0xbc8dc56f	-0.017306058
224	0xbc6f02fd	-0.014588115
225	0x3ace97ee	0.0015761831
226	0xbd1b3416	-0.03789147
227	0x3ca58f61	0.02020997
228	0x3d854512	0.06507315
229	0xbd707a47	-0.058710363
230	0x3cfa5033	0.03055582
231	0x3d801985	0.062548675
232	0xbde054aa	-0.109536484
233	0xbd23f3ac	-0.040027305
234	0xbd227734	-0.039664462
235	0xbcc14ef8	-0.023597226
236	0x3e2aa42e	0.16664192
237	0xbe071b50	-0.13194013
238	0xbda7569b	-0.081708156
239	0x3cc047f2	0.023471806
240	0x3da5cd4b	0.08095797
241	0x3d9a2390	0.07526314
242	0x3c6dd024	0.014514957
243	0xbbddfe13	-0.006774673
244	0xbd93a2c5	-0.0720878
245	0xbd90f710	-0.070783734
246	0xbbc65595	-0.0060526826
247	0xba0b3c23	-0.000531139
248	0x3d35d7ad	0.044395138
249	0x3bec01dd	0.0072023706
250	0x3cefad31	0.029257389
251	0x3cbc4bed	0.022985423
252	0xbd918df2	-0.07107152
253	0x3db64e88	0.089016974
254	0x3c8e653e	0.01738226
255	0xb9a5cba1	-0.00031622968

fc1.bias f4 [400]
0	0x3e16d5ed	0.14730044
1	0x3c31b98a	0.010847459
2	0x3de8547d	0.1134424
3	0x3d2279de	0.039667003
4	0xbdadddd2	-0.084895745
5	0xbdb39f53	-0.08770623
6	0x3e4bb4f5	0.19893248
7	0xbbedc81a	-0.00725652
8	0xbdc7f65c	-0.09763786
9	0xbdec0d58	-0.115259826
10	0x3d3f2311	0.0466643
11	0x3e0d700e	0.13812277
12	0xbe541770	-0.20712066
13	0xbd910878	-0.070816934
14	0x3dfe0754	0.124037415
15	0xbe071c82	-0.13194469
16	0x3df0feab	0.11767324
17	0xbddaf146	-0.106905505
18	0x3d164a39	0.036691878
19	0x3df13bac	0.1177896
20	0xbdc60b48	-0.096701205
21	0x3e5af5d2	0.21382836
22	0x3e550283	0.2080174
23	0xbdb61dea	-0.088924244
24	0x3c54375b	0.012952651
25	0xbe16fffa	-0.14746085
26	0xbda9c498	-0.082894504
27	0xbcc5cf00	-0.024146557
28	0xbead07c9	-0.33795002
29	0x3dc33b72	0.09532823
30	0xbe390e24	-0.180718
31	0x3e3d7cdd	0.18504663
32	0x3d05dfdb	0.03268419
33	0x3ea741b1	0.32667306
34	0xbcd5beb0	-0.026091903
35	0xbea15167	-0.31507418
36	0x3df237eb	0.11827072
37	0xbea393f7	-0.31948826
38	0x3cacb837	0.021083934
39	0xbe934935	-0.2876679
40	0x3e1dfe59	0.15429057
41	0xbe98dcae	-0.29855865
42	0x3e9bf2ba	0.30458623
43	0x3e2809c2	0.16409972
44	0x3cc711d8	0.0243005
45	0xbe088001	-0.1333008
46	0x3d8b8f05	0.06814388
47	0x3cc8dc06	0.024518978
48	0x3dc7df1c	0.097593516
49	0x3e94191f	0.28925416
50	0x3de3c52d	0.11121593
51	0x3e893fce	0.26806492
52	0x3d311ec0	0.043242216
53	0xbdc9e9ea	-0.09859069
54	0x3e33bad7	0.17551742
55	0x3d9acaf3	0.07558241
56	0xbc5c1163	-0.01343188
57	0xbe120ff7	-0.14263903
58	0x3e1cae66	0.15300903
59	0xbdba7f15	-0.0910627
60	0xbd56cc09	-0.052440677
61	0xbe8124f4	-0.25223505
62	0xbe499382	-0.19685176
63	0x3d94f879	0.07273955
64	0x3df60b5f	0.120138876
65	0xbde20810	-0.11036694
66	0x3bf03e9b	0.007331682
67	0x3e4ea562	0.20180276
68	0xbe38b147	-0.18036376
69	0x3e39fc32	0.18162611
70	0xbbddffac	-0.006774863
71	0x3eb6e6df	0.35723016
72	0x3ddc3685	0.10752586
73	0x3dc76fcb	0.0973812
74	0xbe076551	-0.13222243
75	0xbdedebd8	-0.11617249
76	0xbe06e48e	-0.13173124
77	0x3e0ea307	0.13929377
78	0x3e2d57e6	0.16928062
79	0x3e012397	0.12611233
80	0x3e3b3b66	0.18284377
81	0xba4900c0	-0.0007667653
82	0x3e25e378	0.16200054
83	0x3e2aa2fa	0.16663733
84	0xbe4521a4	-0.19251114
85	0x3e0a205b	0.13488905
86	0xbc7f19a7	-0.015570081
87	0xbe95637d	-0.29177466
88	0xbdd92cf5	-0.10604278
89	0x3c83bdd7	0.016081734
90	0xbd43a080	-0.047760487
91	0x3e1ec75c	0.15505737
92	0x3e0354d5	0.1282533
93	0x3e25b2ec	0.16181535
94	0xbd98c2f2	-0.07459058
95	0xbde386da	-0.11109705
96	0xbdac1b50	-0.08403647
97	0x3e4c7cee	0.19969532
98	0x3e1b224b	0.151498
99	0xbdf5448e	-0.119759664
100	0x3e51b769	0.20480122
101	0xbdfd58ee	-0.123704776
102	0x3da6924c	0.08133373
103	0xbe80cd4a	-0.25156623
104	0x3e429873	0.19003467
105	0xbb7c31ba	-0.0038481788
106	0xbbade59b	-0.005306912
107	0x3e911d37	0.28342602
108	0xbea01227	-0.3126385
109	0x3e1b6f24	0.15179116
110	0x3e55e3d1	0.20887686
111	0xbea85b74	-0.32882273
112	0xbe6602af	-0.22461961
113	0x3dec5a0e	0.11540614
114	0xbc4f0ac3	-0.012636843
115	0xbe4d2213	-0.2003253
116	0xbc008f2f	-0.007846638
117	0x3dfef05c	0.12448189
118	0xbd46597a	-0.048425175
119	0x3c942408	0.018083587
120	0x3d4bef2b	0.049788635
121	0xbca04d5d	-0.01956814
122	0xbd9bf90e	-0.07615863
123	0xbea8fd5c	-0.33005798
124	0xbda489e7	-0.08034115
125	0xbe88c703	-0.26714334
126	0x3e2c99f2	0.168556
127	0x3e674662	0.22585443
128	0xbe1265bb	-0.1429662
129	0xbe465ae3	-0.19370608
130	0x3e65596f	0.22397397
131	0xbce5ea6f	-0.028065888
132	0xbda5039b	-0.08057328
133	0x3baa2c28	0.005193252
134	0x3e357992	0.17722157
135	0xbcc6e83f	-0.024280665
136	0x3e06142d	0.13093634
137	0x3d2b37eb	0.041801374
138	0xbe0d15b4	-0.1377781
139	0xbdb74dbd	-0.08950374
140	0xbd1f1ad8	-0.03884396
141	0xbd269c82	-0.0406766
142	0xbe15086b	-0.14553992
143	0xbd3cd00c	-0.046096846
144	0xbe31c8dc	-0.17361778
145	0x3e4f60e9	0.20251812
146	0xbda13052	-0.078705445
147	0x3e14bbde	0.1452479
148	0x3d9945be	0.074840054
149	0xbe38a544	-0.18031794
150	0x3e600fc4	0.21881014
151	0x3e045cd3	0.12926035
152	0x3be6e0c3	0.0070458367
153	0xbdc32b24	-0.09529713
154	0x3bce538b	0.00629658
155	0x3d90dab5	0.07072965
156	0x3e95bb53	0.2924448
157	0x3d06fe60	0.032957435
158	0x3d75c0c6	0.059998296
159	0xbd5b8027	-0.053589012
160	0xbcae2457	-0.021257563
161	0x3e1519d4	0.14560634
162	0xbea49f06	-0.32152575
163	0xbc4cf7fd	-0.012510297
164	0xbe0f35b1	-0.13985325
165	0x3e426ce5	0.18986852
166	0xbdfb0291	-0.12256349
167	0xbe014520	-0.12624025
168	0x3dbff81e	0.093734965
169	0x3d17b41d	0.037037004
170	0xbde72983	-0.112872146
171	0x3e645654	0.22298557
172	0x3d12dfe8	0.035858065
173	0xbd78a745	-0.060706396
174	0xbeb481c9	-0.35255268
175	0xbd49c31f	-0.049258348
176	0xbcb37813	-0.021907842
177	0xbd32ea2a	-0.043680348
178	0xbe5c8f11	-0.2153895
179	0xbe219fd2	-0.15783623
180	0x3d2b3e63	0.041807543
181	0xbd997162	-0.07492329
182	0xbeb4a33e	-0.35280794
183	0xbe455c94	-0.19273597
184	0x3e423c44	0.18968302
185	0x3d6a665d	0.057226527
186	0xbdc2d416	-0.095131084
187	0xbe5f95c8	-0.21834481
188	0xbe3aeebe	-0.18255135
189	0xbdcf2a9d	-0.1011555
190	0x3e1efcfb	0.15526192
191	0xbdcfd201	-0.10147477
192	0x3e370d82	0.17876247
193	0xbd99bdde	-0.075069174
194	0xbe30601a	-0.1722416
195	0x3e890946	0.26764888
196	0xbe4411d5	-0.19147427
197	0xbe5ba74b	-0.21450536
198	0xbcead0b9	-0.02866398
199	0xbc721721	-0.014776022
200	0xbe1c7fc0	-0.15283108
201	0xbd91fdc1	-0.07128478
202	0x3d111773	0.035422754
203	0x3e3fcc9f	0.187304
204	0x3d40c951	0.04706699
205	0xbdc3b8b8	-0.09556717
206	0x3e071663	0.13192134
207	0xbe477f4a	-0.1948215
208	0x3eb2cd3e	0.34922212
209	0x3d4106aa	0.047125496
210	0x3da32b01	0.07967187
211	0xbdb26db4	-0.087123305
212	0x3e6ef24e	0.2333462
213	0x3e16d7e9	0.147308
214	0xbdccd895	-0.10002247
215	0xbd675174	-0.056474164
216	0xbe475a03	-0.1946793
217	0xbc4e53f4	-0.012593258
218	0xbdfad382	-0.12247373
219	0x3e89d5e9	0.26921013
220	0xbe777289	-0.24164785
221	0x3e53def5	0.2069052
222	0xbd89b881	-0.067246445
223	0xbdb1248f	-0.08649551
224	0x3e0dc854	0.1384595
225	0xbe08c878	-0.13357723
226	0xbdeb33b9	-0.11484475
227	0xbd8e0aab	-0.069356285
228	0x3e32c27a	0.17457
229	0xbe213c9a	-0.15745774
230	0xbe638692	-0.22219303
231	0xbe4bb4c9	-0.19893183
232	0xbe5d8a99	-0.21634902
233	0x3ec2b16c	0.38025987
234	0x3d7de63d	0.06198715
235	0x3d437987	0.04772332
236	0x3da073e2	0.07834603
237	0xbe538d0c	-0.20659274
238	0x3dfcaf69	0.12338144
239	0x3e305473	0.17219715
240	0x3e29606f	0.16540693
241	0x3b94ea61	0.0045445417
242	0x3e0d6c6a	0.13810888
243	0xbd83442d	-0.06409488
244	0x3ea45d4f	0.3210244
245	0x3e82ffa5	0.25585666
246	0x3e5104db	0.20412008
247	0x3d30ca37	0.043161597
248	0xbdd1e9be	-0.10249661
249	0xbdf2288f	-0.11824142
250	0xbe3498a9	-0.1763636
251	0xbe3eefae	-0.18646118
252	0xbe0158dc	-0.12631553
253	0x3e7c56ee	0.24642536
254	0x3e35bd34	0.17747957
255	0xbd1b8986	-0.03797295

fc2.weight f4 [300, 400]
0	0xbb81a749	-0.0039567095
1	0xbd6a2939	-0.05716822
2	0x3cc8ccf2	0.024511788
3	0x3d2b211d	0.041779626
4	0xbd9ae020	-0.0756228
5	0xbd4eb2c8	-0.050463468
6	0xbe79ae8b	-0.24382989
7	0x3d5654b1	0.05232686
8	0xbc84905a	-0.016182113
9	0xbc1eceec	-0.009692889
10	0x3dbd1849	0.09233148
11	0xbcebe533	-0.028795814
12	0xbe0e0e54	-0.13872653
13	0xbc18f8af	-0.009336635
14	0x3c911e30	0.01771459
15	0x3d6d905c	0.057999
16	0x3d9139e3	0.07091119
17	0x3cd23502	0.025660042
18	0xbe3d5697	-0.18490063
19	0xbdda8e16	-0.10671632
20	0xb9f859b7	-0.0004736909
21	0x3dc2e0f4	0.09515563
22	0x3de9f57c	0.114237756
23	0xbde75401	-0.11295319
24	0x3d0e6c04	0.03477098
25	0xbc555c92	-0.013022559
26	0xbddf93a0	-0.10916829
27	0xbd62a425	-0.05533232
28	0xbe89e165	-0.26929775
29	0xbe385337	-0.18000494
30	0x3c5a6864	0.013330553
31	0x3cb19b98	0.021680638
32	0xbdf83d48	-0.121210635
33	0xbde54d33	-0.11196365
34	0xba178eec	-0.000578149
35	0x3b4d56e6	0.0031332313
36	0xbcc85d20	-0.024458468
37	0x3c5f6e97	0.0136372065
38	0xbd1e6648	-0.03867176
39	0xbbd39f65	-0.0064582103
40	0xbc0acccd	-0.00847168
41	0xbd3f46de	-0.046698444
42	0xbc670cd5	-0.0141021805
43	0xbd7e8bda	-0.06214509
44	0xbdc6131b	-0.09671613
45	0x3bc0b91d	0.005881442
46	0xbc27170e	-0.010198368
47	0x3bb542b4	0.0055316333
48	0x3bf7f5cc	0.007567143
49	0xbd173e3d	-0.03692459
50	0xbd45bf24	-0.04827799
51	0xbdf60750	-0.120131135
52	0xbca743be	-0.020418044
53	0xbd827149	-0.06369264
54	0x3be5a426	0.0070080934
55	0xbb1f06aa	-0.0024265447
56	0x3d64fb1c	0.05590354
57	0x3d84c8d6	0.06483619
58	0xbd492624	-0.04910864
59	0xbd51def3	-0.05123801
60	0xbe36dba2	-0.17857221
61	0x3d4079ef	0.046991285
62	0xbd97ea21	-0.074177034
63	0xbe121827	-0.14267026
64	0xbd2e0823	-0.04248823
65	0x3dac5645	0.08414892
66	0x3e404b5d	0.18778749
67	0x3c9adad5	0.018903175
68	0xbb8f6b05	-0.0043767714
69	0xbbefc3c4	-0.0073170383
70	0xbce2299e	-0.027607735
71	0x3d139923	0.036034714
72	0x3d00d292	0.031450815
73	0x3dbf8b0a	0.093526915
74	0x3d6d33c9	0.057910714
75	0x3cf85650	0.030314595
76	0xbd3e8ae2	-0.046519168
77	0x3b223564	0.0024751062
78	0xbd349a61	-0.04409254
79	0xbdd373d1	-0.103248246
80	0x3da655ce	0.08121835
81	0x3d8fad77	0.07015508
82	0x3ce9eefc	0.02855634
83	0xbdb60b8d	-0.08888922
84	0xbd6cb92b	-0.057793777
85	0xbd661e27	-0.0561811
86	0x3c6fbec7	0.014632887
87	0x3ce31d3d	0.027723903
88	0x3d46a621	0.048498277
89	0xb975a565	-0.00023426635
90	0xbca54f8c	-0.020179532
91	0x3c109180	0.008823752
92	0xbdafec7e	-0.08590029
93	0xbd76ad05	-0.060223598
94	0x3d24f09a	0.040268518
95	0x3d0d4211	0.034486834
96	0xbd10256a	-0.03519193
97	0xbd304fc6	-0.043044828
98	0xbdc921db	-0.098209105
99	0x3d153cf7	0.036435094
100	0x3cc52386	0.02406479
101	0xbd9546c0	-0.07288885
102	0xbc965d50	-0.018355042
103	0x3d003d0f	0.03130823
104	0xbc99730a	-0.018731613
105	0xbdb9be7a	-0.09069534
106	0x3c8f61a6	0.017502617
107	0x3d261f45	0.040557165
108	0xbd90e7e7	-0.07075482
109	0xbde2dbe3	-0.11077096
110	0xbd4df3f5	-0.050281484
111	0x3d555871	0.052086297
112	0xbdd4faa7	-0.10399371
113	0x3cbf9b10	0.02338937
114	0x3e041264	0.1289764
115	0x3d1aca17	0.037790384
116	0x3cdc5d9d	0.026900107
117	0x3b8f8061	0.0043793176
118	0xbd33c5c0	-0.04388976
119	0xbde807dd	-0.11329625
120	0x3d602172	0.054719396
121	0xbe0fe8ee	-0.140537
122	0x3dc6bc61	0.09703899
123	0x3c1e317a	0.009655351
124	0x3da59663	0.080853246
125	0xbe0ceab3	-0.13761406
126	0xbdedaa0d	-0.116047
127	0x3e5b799e	0.21433112
128	0x3d51052e	0.05103033
129	0x3c4ae85b	0.012384499
130	0x3d907923	0.07054355
131	0x3d443eb4	0.04791136
132	0x3cd7897b	0.026310673
133	0x3d926d1f	0.071497194
134	0x3d1fbcdd	0.038998473
135	0xbcb184bf	-0.021669744
136	0x3eaab9a3	0.33344755
137	0xbdf31690	-0.11869538
138	0xbe269510	-0.162678
139	0x3cb0a69d	0.021563822
140	0xbd0a9f89	-0.03384355
141	0xbd7e5698	-0.0620943
142	0xbe8593f1	-0.26089433
143	0xbcbe6b6e	-0.023244586
144	0xbca2b13a	-0.019859899
145	0xbcc61b26	-0.024182867
146	0x3db23ed5	0.087033905
147	0xbd213ad5	-0.039362747
148	0x3d818b12	0.06325354
149	0x3d387ee1	0.045042876
150	0xbe9d1a31	-0.30684045
151	0x3c840804	0.016117103
152	0xbc116110	-0.008873239
153	0xbc951b12	-0.018201385
154	0xbe202979	-0.1564082
155	0xbcd15c43	-0.02555669
156	0xbcaad3ca	-0.020852942
157	0x3d0212c6	0.031756185
158	0x3cfb4a52	0.030675087
159	0xbb9abc3b	-0.004722146
160	0x3b97f79f	0.004637673
161	0x3d189f2f	0.037261184
162	0x3d848399	0.06470413
163	0xbc22b08f	-0.00992979
164	0xbe0b7fd9	-0.13622989
165	0xbb6ef125	-0.0036459651
166	0xbe49bf13	-0.19701795
167	0xbcd744ce	-0.026277926
168	0x3ba37755	0.0049885907
169	0xbc409eda	-0.011756623
170	0xbca23524	-0.01980073
171	0xbdd06276	-0.1017503
172	0x3ca1eb2b	0.019765457
173	0x3c31c2c9	0.010849663
174	0x3ce179ba	0.027523864
175	0xbddb5d79	-0.10711188
176	0xbe356c09	-0.17716993
177	0x3c4448a4	0.0119802095
178	0xbb5ba261	-0.0033513533
179	0xbd9a757e	-0.07541941
180	0xbd88f4e7	-0.066873364
181	0x3c9d1b7d	0.019178146
182	0xbd174ae3	-0.036936652
183	0xbdf93ba4	-0.12169579
184	0x3d5aa0ed	0.053376127
185	0xbe0b4e3f	-0.13604067
186	0x3d824d43	0.06362393
187	0xbd8ee32d	-0.06976924
188	0xbd4c7a7b	-0.049921494
189	0xbd86fff4	-0.06591788
190	0xbe41147e	-0.18855473
191	0xbc76d60f	-0.015065684
192	0xbd13b802	-0.036064155
193	0x3c7c5ada	0.01540252
194	0xbc0a5ec5	-0.008445446
195	0xbde84104	-0.11340526
196	0x3d9bc6ed	0.076063015
197	0x3d720ef7	0.059096303
198	0xbc26cfee	-0.01018141
199	0x3d330776	0.043708287
200	0xbca073e5	-0.019586513
201	0xbd21ef42	-0.039534815
202	0x3aee81f1	0.0018196685
203	0xbe135471	-0.1438768
204	0xbcab8ba3	-0.020940607
205	0xbdfd9870	-0.12382591
206	0x3c8e93b4	0.017404415
207	0xbd060573	-0.03272004
208	0x3eb19772	0.34685856
209	0xbdbed443	-0.093178295
210	0xbdc7525b	-0.09732505
211	0x3d035a17	0.03206834
212	0x3d617e7c	0.055052266
213	0xbb8e1eb5	-0.0043371567
214	0x3e78d478	0.242998
215	0x3b8713a5	0.004122215
216	0x3ce7a2ba	0.028275836
217	0x3ce2380f	0.027614621
218	0x3c65c695	0.014024396
219	0x3cc0af4a	0.023521084
220	0xbd5a3110	-0.053269446
221	0x3aac8f7a	0.0013165318
222	0xbd5fde06	-0.054655097
223	0xbe5174ea	-0.20454755
224	0x3d391b2e	0.045191936
225	0xbe624bc9	-0.22099222
226	0xbc44fc95	-0.012023111
227	0xbd06bce1	-0.032894973
228	0xbd988a2d	-0.0744823
229	0xbd126b6f	-0.035746988
230	0xbc629da3	-0.013831529
231	0x3de63af2	0.11241712
232	0xbcfa8bdc	-0.030584268
233	0x3d6089fd	0.054819096
234	0x3d6f748c	0.058460757
235	0xbda59931	-0.080858596
236	0xbd9b3fa1	-0.075804956
237	0xbe0d6240	-0.1380701
238	0x3d06a687	0.032873657
239	0x3dc54cab	0.09633764
240	0xbdb59f45	-0.08868269
241	0xbdd1216a	-0.10211451
242	0x3c4821c4	0.012215082
243	0x3d0b1c55	0.033962566
244	0x3d65ff68	0.056151778
245	0x3b4b326b	0.0031005393
246	0xbe06ab5f	-0.1315131
247	0xbe07447a	-0.13209715
248	0x3c4574ef	0.012051805
249	0xbe17fe87	-0.14843188
250	0xbde282df	-0.11060118
251	0xbd22c729	-0.039740715
252	0xbdc6a722	-0.09699847
253	0x3dacd4e1	0.08439041
254	0xbe0c37f1	-0.13693215
255	0xbe1fbabd	-0.15598579

fc2.bias f4 [300]
0	0xbd129e26	-0.035795353
1	0x3d55a4a8	0.05215898
2	0x3d90fd15	0.070795216
3	0x3b99f5d5	0.004698495
4	0xbd802af4	-0.06258193
5	0xbd807f8d	-0.062743284
6	0xbc188c61	-0.009310813
7	0xbdc4dd51	-0.09612525
8	0xbdb4caed	-0.088277675
9	0xbb554306	-0.003254117
10	0x3bc2039f	0.005920842
11	0x3b260a46	0.0025335713
12	0x3d6cf324	0.057849064
13	0xbc0a8b8a	-0.00845612
14	0x3d033ebe	0.032042257
15	0xbd80a970	-0.06282318
16	0x3be9fb2b	0.0071405373
17	0xbdad3b5d	-0.08458588
18	0x3d317015	0.04331978
19	0xbde6f230	-0.11276662
20	0x3df308df	0.118669264
21	0xbd7d0768	-0.06177464
22	0xbd28bfdd	-0.0411986
23	0xbcd7010d	-0.026245618
24	0x3c115494	0.008870263
25	0xbcd9bca8	-0.026579216
26	0xbcbe39bd	-0.023220891
27	0xbb56f94d	-0.0032802403
28	0x3d3f89fd	0.046762455
29	0xbd2d38b9	-0.042290423
30	0x3c4ef824	0.0126324035
31	0xbdc9fb5e	-0.098623976
32	0x3d02bc3e	0.031917803
33	0xbdae144d	-0.08499966
34	0x3cbcf1e4	0.023064561
35	0xbdb9a059	-0.09063787
36	0x3d4d5fbc	0.050140128
37	0xbe044d83	-0.12920193
38	0xbe03c5d8	-0.1286844
39	0x3b0efb12	0.002181713
40	0x3d745962	0.059655555
41	0x3cf7ac2c	0.030233465
42	0x3e15df90	0.14636064
43	0x3d8a4b0e	0.06752597
44	0xbdc14749	-0.09437425
45	0x3c013895	0.007887025
46	0xbc9cc635	-0.019137481
47	0x3bb59227	0.0055411044
48	0xbda02691	-0.07819856
49	0xbc9c11c0	-0.019051433
50	0xbde83995	-0.11339108
51	0xbdd604a3	-0.10450103
52	0x3dfb8283	0.122807525
53	0x3d5ed2b5	0.054400165
54	0x3d9ab7b8	0.07554573
55	0xbdb566c4	-0.088574916
56	0x3d078405	0.033084888
57	0x3dd2ed9d	0.102992274
58	0xbc9900d7	-0.018677158
59	0x3da32cd5	0.079675354
60	0xbc369a45	-0.011145179
61	0x3e06e08a	0.13171592
62	0x3cb86389	0.0225084
63	0xbddb6498	-0.10712546
64	0xbd4c28ee	-0.04984372
65	0x3b939d23	0.004504816
66	0x3d32d10f	0.043656405
67	0xbd9927eb	-0.07478317
68	0xbcaeb733	-0.02132759
69	0x3d18e852	0.037330933
70	0xbd7879b3	-0.060662936
71	0x3d7871c8	0.060655385
72	0x3cf9012d	0.030396068
73	0xbde44b2a	-0.11147149
74	0x3d467067	0.04844704
75	0xbd86e311	-0.06586278
76	0x3c6cb232	0.014446782
77	0xbe3879db	-0.18015234
78	0x3d1ea28c	0.038729236
79	0x3d148d3b	0.0362675
80	0x3d4bb2b2	0.049730964
81	0x3c626cb0	0.013819858
82	0xbded15c0	-0.11576414
83	0xbd2856d0	-0.041098416
84	0x3d4cc397	0.049991217
85	0x3cc30465	0.023805806
86	0x3d5eba54	0.054376915
87	0xbd9b8788	-0.0759421
88	0xbdb0c1d0	-0.08630717
89	0xbdd078f0	-0.10179317
90	0xbc426f3c	-0.011867341
91	0xbbec8fad	-0.007219276
92	0xbd172b86	-0.03690674
93	0xbd9d04f7	-0.076669626
94	0xbd1943eb	-0.037418287
95	0xbd2f0288	-0.042727023
96	0xbd250138	-0.040284365
97	0x3ca3f03b	0.020012012
98	0x3d5a418b	0.053285163
99	0x3d157e98	0.036497682
100	0x3d68dcf6	0.05685135
101	0xbbd37970	-0.0064536855
102	0xbc00e2bb	-0.007866557
103	0xbd385ed9	-0.04501233
104	0x3d6425bb	0.055700045
105	0x38b81fca	8.779725e-05
106	0x3c843a40	0.016141057
107	0xbc7b1c98	-0.0153266415
108	0x3d340f63	0.043959986
109	0x3d32190c	0.043480918
110	0xbc7783a5	-0.01510707
111	0xbe04dec7	-0.12975608
112	0xbd0ccbb6	-0.03437396
113	0xbd70ab1e	-0.05875694
114	0xbda63973	-0.08116426
115	0x3c342cb9	0.010996991
116	0xbc537e27	-0.012908495
117	0xbd71dd5b	-0.05904899
118	0xbc1af30f	-0.009457364
119	0xbde70306	-0.112798735
120	0xbdf331d5	-0.11874739
121	0xbde427f1	-0.11140431
122	0xbd83acae	-0.064294204
123	0xbd0d95c8	-0.03456667
124	0xbd4ecd9e	-0.05048906
125	0x3d6406f8	0.05567071
126	0xbc3870d8	-0.011257373
127	0x3dd455e6	0.10367946
128	0x3c96c879	0.01840614
129	0xbc196bce	-0.009364082
130	0x3c61136e	0.013737543
131	0xbd2953d9	-0.04133973
132	0x3c07f036	0.008297017
133	0xbd836f30	-0.06417692
134	0xbe322609	-0.17397322
135	0xbd82a254	-0.06378618
136	0xbdf56771	-0.119826205
137	0x3d998c48	0.0749746
138	0xbd3e1408	-0.046405822
139	0x3d9f5552	0.077799454
140	0x3bb335dd	0.0054690675
141	0x3c7087d7	0.014680824
142	0x3d1f88e8	0.038948923
143	0xbd316d90	-0.043317378
144	0x3dbfbcff	0.0936222
145	0xbda85411	-0.082191594
146	0x3a148a5e	0.000566637
147	0x3bc05d56	0.0058705015
148	0x3b930091	0.0044861515
149	0xbd176bbe	-0.036967985
150	0xbd261e91	-0.040556494
151	0xbc11f348	-0.0089081
152	0xbd988a4c	-0.07448253
153	0x3c46e4ec	0.01213954
154	0xbda564b0	-0.08075845
155	0xbc2d3655	-0.010572036
156	0xbd7b4d6a	-0.061353125
157	0x3d56d703	0.052451145
158	0x3cf34451	0.029695662
159	0xbb6b3228	-0.003588805
160	0x3d6e0527	0.058110382
161	0xbd11ff38	-0.035643786
162	0xbe352c60	-0.17692709
163	0xbc1e1b17	-0.009650013
164	0xbd2d8f68	-0.04237309
165	0x3c81daf7	0.01585148
166	0x3dbf80f1	0.093507655
167	0x3ce719c5	0.02821053
168	0xbd0b5960	-0.03402078
169	0xbd388503	-0.045048725
170	0x3cf9d192	0.030495439
171	0x3c62a843	0.013834062
172	0x3cb4f0ad	0.02208742
173	0xbd599f80	-0.053130627
174	0x3cced36c	0.025247298
175	0x3c12eb09	0.00896717
176	0x3d8aa9f8	0.067707
177	0xbd9bda25	-0.07609967
178	0x3c6d9a5c	0.014502134
179	0x3da3fe10	0.08007443
180	0x3cdf0b2d	0.027227009
181	0x3c9597d0	0.018260866
182	0x395c0a55	0.00020984684
183	0x3c1ae7f7	0.009454719
184	0x3d58689a	0.05283413
185	0xbdcb0089	-0.099122114
186	0x3d621724	0.05519785
187	0x3d5f5979	0.054528687
188	0xbb5a4c2d	-0.0033309564
189	0xbd057f76	-0.03259226
190	0x3d19c9ef	0.037546095
191	0x3d1e2728	0.03861156
192	0x3c8eb466	0.017420005
193	0x3d40a5f9	0.047033284
194	0xbdd41d21	-0.103571184
195	0x3d11bfc5	0.035583276
196	0x3d4b2edd	0.04960524
197	0x3d92d106	0.07168774
198	0xbb0b749e	-0.0021279226
199	0xbdfe6cc0	-0.12423086
200	0x3cdcdd7e	0.026961084
201	0xbbb191d3	-0.005418995
202	0x3d0e81fe	0.03479194
203	0x3d3c6317	0.045992937
204	0xbd2ff7a7	-0.04296079
205	0x3d8e7a63	0.06956937
206	0x3d4361c0	0.047700644
207	0xbd722b1e	-0.05912315
208	0xbc958540	-0.018252015
209	0x3c45480b	0.012041102
210	0x3c780d27	0.0151398545
211	0x3c906dd3	0.017630493
212	0xbd26b3e9	-0.04069892
213	0x3d9edbf0	0.077567935
214	0x3ae847df	0.0017721615
215	0xbbbf1e5f	-0.005832478
216	0x3d74cc69	0.059765253
217	0x3bca493f	0.0061732824
218	0xbc8919ff	-0.016736029
219	0x3d5d5d6e	0.05404418
220	0xbd57fd0d	-0.052731562
221	0x3c28f88b	0.0103131635
222	0x3d0eb08c	0.034836337
223	0xbd76dc8e	-0.06026893
224	0xbbbf4015	-0.0058364966
225	0x3d45674f	0.048194226
226	0x3c102104	0.008796934
227	0x3dde292e	0.10847698
228	0xbd3505f4	-0.04419513
229	0xbcfe971b	-0.031077912
230	0xbd39dcd4	-0.045376614
231	0xbe0521c5	-0.13001163
232	0x3d3b9f21	0.045806054
233	0xbddfd4ca	-0.10929258
234	0xbe0a9e79	-0.13537015
235	0x3d74a181	0.059724335
236	0x3d08b420	0.033374906
237	0x3c0cb439	0.00858789
238	0x3d5646ee	0.052313738
239	0x3d3f8933	0.046761703
240	0x3c8a382b	0.016872486
241	0x3ba5f96e	0.0050651347
242	0xbcf64c25	-0.030065605
243	0xbd8801f4	-0.066409975
244	0x3bb235cf	0.0054385434
245	0x3d86ab26	0.06575613
246	0xba0c37c3	-0.00053488853
247	0xbc61e179	-0.013786667
248	0x3c197bc8	0.009367891
249	0x3d0f58b4	0.034996703
250	0xbc2a6d28	-0.010402001
251	0x3b5914f3	0.003312406
252	0xbcbb89e5	-0.022892902
253	0xbd137791	-0.0360027
254	0xbccfe5f2	-0.025378201
255	0xbc733192	-0.014843361

fc3.weight f4 [2, 300]
0	0xbe7f38cd	-0.24924012
1	0x3d08e211	0.03341872
2	0x3e063078	0.13104427
3	0x3d5a5f18	0.053313345
4	0x3e67c806	0.22634897
5	0x3ebb272a	0.36553317
6	0x39b5c2fd	0.00034668288
7	0x3e79059b	0.24318545
8	0x3e42c097	0.1901878
9	0xbd5fc65d	-0.054632533
10	0x3d8e984d	0.06962643
11	0x3cf10ef3	0.029426074
12	0xbda654b9	-0.08121628
13	0xbc995c94	-0.018720903
14	0x3c7f7df0	0.015593991
15	0x3e11cabf	0.14237498
16	0x3df12c9e	0.11776088
17	0x3d59bb33	0.053157043
18	0x3e8aa2d5	0.27077356
19	0xbe5433cc	-0.20722884
20	0x3e4100c5	0.1884795
21	0xbba2fde6	-0.0049741147
22	0x3cf7787e	0.030208822
23	0x3e1da526	0.1539503
24	0xbe2e1142	-0.16998771
25	0x3d1ca5f1	0.03824419
26	0x3e95a627	0.29228327
27	0xbceae4f1	-0.02867362
28	0x3d7b97f1	0.0614242
29	0x3e307145	0.17230709
30	0xbe286482	-0.1644459
31	0x3eaeb46e	0.34122032
32	0xbc46df42	-0.01213819
33	0x3e6f181d	0.23349042
34	0x3e8cb383	0.27480707
35	0x3e08b1c7	0.13349067
36	0x3cc56197	0.024094386
37	0x3e8d8251	0.27638486
38	0x3ea7c8ca	0.32770377
39	0x3ea1c4a3	0.31595334
40	0x3e9f801f	0.31152436
41	0x3e8ef949	0.27924564
42	0x3e364d42	0.17802909
43	0xbd13f72e	-0.0361244
44	0x3e52b8b3	0.2057827
45	0x3e65cc61	0.22441246
46	0x3cc0c543	0.023531562
47	0x3e7afb77	0.24509989
48	0xbcc86304	-0.024461277
49	0xbd4f0d24	-0.05054964
50	0xbc4b6303	-0.012413743
51	0x3c97f5bb	0.01854979
52	0x3e0ce1af	0.13757966
53	0x3d33e465	0.043918986
54	0x3d64c611	0.055852953
55	0x3e8856d7	0.26628754
56	0xbef30342	-0.47463423
57	0x3d21cb3b	0.039500456
58	0x3d22677e	0.03964948
59	0x3df1304d	0.11776791
60	0x3e827732	0.25481564
61	0x3e5823dc	0.2110743
62	0xbca5f9b0	-0.020260662
63	0x3e805391	0.25063756
64	0xbc817866	-0.01580448
65	0xbd8282b5	-0.06372587
66	0x3dbfc266	0.093632504
67	0x3d292542	0.041295297
68	0xbd5968c8	-0.053078443
69	0x3d2ebf87	0.042663123
70	0x3e33801d	0.1752934
71	0xbcb61a71	-0.022229405
72	0x3e8a3dd5	0.270003
73	0x3e871ee1	0.26390746
74	0xbce87992	-0.028378282
75	0x3b26d2ee	0.0025455314
76	0x3ddeea5a	0.10884543
77	0x3ece5604	0.403
78	0x3dcf1e2c	0.10113177
79	0x3cb2b230	0.021813482
80	0x3de55373	0.11197557
81	0x3d50ec67	0.0510067
82	0x3cfc1e35	0.030776123
83	0xbc45f083	-0.012081268
84	0x3d39901c	0.04530345
85	0xbcf42d09	-0.02980663
86	0xbcadde36	-0.021224122
87	0x3cb211e1	0.021737041
88	0x3cebaa42	0.028767709
89	0xbe945f32	-0.28978878
90	0x3e1d1962	0.15341714
91	0x3da3f3a0	0.08005452
92	0xbcbfd980	-0.023419142
93	0xbd8c7bb1	-0.0685953
94	0x3e4eacc9	0.201831
95	0x3e15a35d	0.146131
96	0xbbbf9fa0	-0.005847886
97	0xbe169479	-0.14705075
98	0x3dd9265b	0.10603019
99	0xbb9b961a	-0.004748118
100	0x3e614099	0.21997298
101	0x3e2104db	0.15724508
102	0x3dada929	0.0847953
103	0x3d38d2ad	0.04512279
104	0xbd91fd75	-0.07128421
105	0x3d53e7af	0.051734623
106	0x3d802d95	0.06258694
107	0xbe7f78c4	-0.24948412
108	0xbdb31a06	-0.08745198
109	0xbd387b51	-0.04503948
110	0x3e41a10d	0.18909092
111	0x3e91ac53	0.28451785
112	0x3e4e83e8	0.20167506
113	0x3e2b4d21	0.16728641
114	0xbc253b83	-0.0100849895
115	0x3e98465f	0.2974119
116	0x3ee63e42	0.44969374
117	0xbdbd35f1	-0.09238804
118	0xbe028a46	-0.1274806
119	0x3e6c5c5d	0.23082109
120	0x3ebf2fbf	0.37341115
121	0x3ebc8c2b	0.3682569
122	0x3e030073	0.1279314
123	0x3e1e2c82	0.15446666
124	0x3e67d456	0.22639593
125	0x3dbd7705	0.09251217
126	0x3e7f9eca	0.24962917
127	0x3daaa6db	0.083326064
128	0xbd917016	-0.07101457
129	0x3d5846d1	0.05280191
130	0xbc8d9266	-0.017281722
131	0x3e7ba799	0.24575652
132	0x3d284309	0.041079555
133	0x3d27df9c	0.040984735
134	0x3ec5a9c9	0.38606098
135	0x3c8bee8d	0.017081523
136	0x3e700fef	0.23443578
137	0xbc8f772f	-0.017512886
138	0x3d7753a0	0.060382485
139	0x3d2e519e	0.042558305
140	0xbbfd67b9	-0.007733312
141	0xbcb4b44b	-0.022058627
142	0xbe1aa632	-0.15102461
143	0x3d42c327	0.047549393
144	0xbdb8d7f8	-0.09025568
145	0x3e530005	0.20605476
146	0x3e158fe4	0.14605671
147	0xbebf6afd	-0.37386313
148	0x3cefe1ec	0.029282533
149	0x3d51af25	0.05119242
150	0x3e07de68	0.13268435
151	0x3d44ac19	0.048015688
152	0x3e989032	0.29797512
153	0xbd96d2d5	-0.07364432
154	0x3deb66b7	0.11494201
155	0x3bdd2ab1	0.006749474
156	0xbddb96ab	-0.10722097
157	0x3eace85a	0.3377102
158	0xbc4cbfbb	-0.012496884
159	0xbe4068e7	-0.18790017
160	0x3d3dbb29	0.046321068
161	0xbda384b7	-0.07984298
162	0xbd7027ac	-0.058631584
163	0xbcc9499b	-0.02457123
164	0xbe037725	-0.12838419
165	0xbcc1121f	-0.023568211
166	0xbe1315fd	-0.14363857
167	0x3def5868	0.11686784
168	0xbc16307e	-0.009166835
169	0xbdca0104	-0.09863475
170	0xbbcb53dc	-0.006205065
171	0x3daf701d	0.08566306
172	0x3acb3711	0.0015504082
173	0xbc97020b	-0.018433591
174	0x3d0bb54b	0.03410844
175	0x3c167ef2	0.00918554
176	0x3e44b85c	0.19210953
177	0x3de9b049	0.11410577
178	0x3da521a4	0.08063057
179	0x3e32e93a	0.17471781
180	0xbd9cd6fe	-0.07658194
181	0x3dc27ceb	0.094964825
182	0xbf1519e6	-0.5824264
183	0x3d5a2bd4	0.053264454
184	0x3e7cd1b2	0.24689367
185	0xbeb59d29	-0.35471466
186	0x3d9f9430	0.077919364
187	0xbd2be074	-0.041962102
188	0x3ded654b	0.11591586
189	0xbc58eb5e	-0.01323971
190	0xbd346cd6	-0.044049107
191	0xbd31df41	-0.043425802
192	0x3c23a2b5	0.009987523
193	0x3e0bef9a	0.1366562
194	0x3e13e45f	0.14442585
195	0xbd08b1c1	-0.033372644
196	0xbd727546	-0.059193872
197	0x3d5abeea	0.053404726
198	0x3ccd5d83	0.025069004
199	0x3e521302	0.20515063
200	0xbc14439c	-0.009049322
201	0xbd075ac3	-0.03304554
202	0x3ea5c7f4	0.32379115
203	0x3caab865	0.02083988
204	0x3c9312f5	0.017953375
205	0x3d538b4e	0.051646523
206	0x3d796c85	0.060894508
207	0xbe456f47	-0.1928073
208	0xbd19f23d	-0.037584532
209	0x3d5d6e20	0.0540601
210	0xbd549d98	-0.051908106
211	0x3dbfc0de	0.09362958
212	0xbcfe66d6	-0.031054895
213	0x3f146363	0.5796415
214	0xbc8a6442	-0.01689351
215	0xbc7af0c9	-0.015316197
216	0xbe2fcc81	-0.17167856
217	0x3c2c80d0	0.010528758
218	0x3e401e47	0.1876155
219	0x3d93606a	0.07196124
220	0x3e61fa82	0.22068217
221	0x3ca59411	0.020212205
222	0x3e2cef89	0.1688825
223	0xbbedc85b	-0.0072565502
224	0x3dd0743b	0.10178419
225	0x3b8ae997	0.004239272
226	0xbd24c2ec	-0.040224954
227	0x3e8702ee	0.26369423
228	0xbdf4aa5b	-0.11946555
229	0xbe2d8298	-0.16944349
230	0xbd2f3f9d	-0.042785276
231	0x3e858a2a	0.26081973
232	0x3c386af1	0.011255966
233	0x3f3ea250	0.7446642
234	0x3e75c071	0.23999192
235	0xbd89e1e5	-0.06732539
236	0xbf0b077a	-0.54308283
237	0xbf1c221b	-0.6098954
238	0x3c141021	0.009037049
239	0x3e1e224e	0.15442774
240	0xbd873050	-0.06601012
241	0x3da01cef	0.07818019
242	0xbc4a8e6b	-0.012363057
243	0xbd1401ed	-0.03613465
244	0xbc81bc9f	-0.015837012
245	0xbe8e3956	-0.2777812
246	0xbd20c8c9	-0.039253984
247	0xbc3ff2ac	-0.011715572
248	0xbdc8b5d2	-0.098003045
249	0x3dab3e1b	0.08361455
250	0xbe390191	-0.18067004
251	0xbba51879	-0.0050383178
252	0xbe023a98	-0.12717664
253	0x3d97e04b	0.07415827
254	0x3d47e563	0.048802745
255	0x3e76f965	0.24118574

fc3.bias f4 [2]
0	0x3d0a10db	0.03370748
1	0x3d8b4a29	0.06801254
